Inverse and Forward modeling/models/model_forward_v51000.tflite (tflite, 163484 bytes, 7 tensors)

sequential_2/dense_12/BiasAdd/ReadVariableOp f4 [30]
-0.17681873 -0.031718846 -0.14614941 -0.23394543 -0.050948944 -0.11883325 -0.036335308 -0.13159433
-0.04072484 -0.061296985 -0.06689042 -0.038314246 -0.035797246 -0.07367977 -0.03386104 -0.03256571
-0.07651861 -0.1636298 -0.14925514 -0.020308524 -0.038127247 0.080287844 0.0021665432 0.1411907
-0.0013833683 -0.2363346 -0.111498326 -0.05254326 -0.15508583 -0.14075625
00000000: f80f 35be 9feb 01bd 31a8 15be 648f 6fbe
00000010: d7af 50bd d95e f3bd 55d4 14bd aac0 06be
00000020: 17cf 26bd 8c12 7bbd d8fd 88bd 66ef 1cbd
00000030: 22a0 12bd 6be5 96bd e0b1 0abd 9f63 05bd
00000040: cab5 9cbd 928e 27be 57d6 18be 105e a6bc
00000050: 512b 1cbd f46d a43d 90fc 0d3b 4b94 103e
00000060: 2352 b5ba b301 72be 3c59 e4bd 9a37 57bd
00000070: d2ce 1ebe 6822 10be

sequential_2/dense_10/MatMul f4 [4, 4]
-0.8531313 0.08593223 0.24145108 0.11739741 -0.22099683 -0.24835292 -0.0022291336 -1.223916
-0.0156238 -0.07896024 -0.56723094 0.45010504 -0.14046691 -0.59200335 0.4222365 0.484932
00000000: d066 5abf 3dfd af3d f43e 773e 0e6e f03d
00000010: fe4c 62be 3a50 7ebe a816 12bb 48a9 9cbf
00000020: f8fa 7fbc e8b5 a1bd 0c36 11bf 2b74 e63e
00000030: 8fd6 0fbe 888d 17bf 622f d83e 0249 f83e

sequential_2/dense_11/MatMul f4 [240, 4]
-0.22454159 0.070525356 -0.3206115 0.33988178 -0.022637412 0.051978853 -0.08150748 0.056669597
0.1392873 0.32348272 0.51183724 0.007002186 0.24582809 -0.10967014 0.18512753 0.008587805
0.08095033 0.34833667 0.3696678 0.13056241 -0.031491175 -0.015711356 -0.008662954 0.0359176
0.2926901 0.7099372 -0.09997805 -0.22972125 0.11410581 0.038709473 -0.05147672 0.06072219
0.09437936 -0.13085051 -0.09029167 -0.06253112 0.1042413 -0.26814374 0.13688004 0.07869956
0.5165608 0.4650958 0.072056964 -0.12532368 -0.17898043 -0.23027118 0.2692794 -0.19914058
0.008519804 0.22837655 0.29291335 0.16072856 0.44407126 0.25224814 0.35209408 0.139495
-0.42063257 -0.0973802 -0.34516382 -0.42055303 -0.31670293 0.06873434 -0.2644209 -0.34051377
-0.13458462 0.0068036076 0.292749 -0.21443571 0.021572433 0.15773231 -0.50618464 0.08683297
-0.413077 0.041961994 0.13062106 -0.28285626 0.006418413 -0.0031771322 0.121408984 -0.10117816
-0.44162962 0.3150424 -0.18602549 -0.077617206 0.05666673 -0.03740068 0.07138001 -0.08450964
0.058863934 0.10781456 -0.0021783516 0.14456171 -0.19883497 -0.10383568 -0.24390526 -0.030695658
0.2398895 0.2019099 0.39285725 0.23622231 0.12504096 0.1996396 0.056441214 0.07771204
-0.10245526 -0.044517763 -0.17829406 0.026059264 0.14883249 0.38131654 -0.538246 -0.33544892
0.08588642 -0.10345453 -0.019068979 0.31130767 -0.20617327 -0.2873094 0.06738923 -0.116356395
-0.06632216 0.13015157 0.026865553 0.10851974 0.15611385 -0.20692837 -0.24006145 0.12267013
-0.45577702 0.10412888 0.26843384 0.16919328 -0.03540855 -0.22152744 -0.42962188 0.28445992
0.07779706 0.18487495 0.5801573 0.081959 0.33229247 0.16957153 -0.15569806 -0.14831968
0.07940733 -0.2615793 -0.15828708 -0.20544185 -0.3945288 -0.009288829 0.2607548 -0.1707321
0.2004915 -0.2977359 -0.10171479 -0.10655719 -0.1579322 -0.08234197 0.014614621 -0.4029518
0.054598693 -0.38481975 0.12711485 0.13371354 0.0632851 -0.11271983 0.052841153 -0.044035465
-0.045627646 0.17949222 0.11894465 0.047739495 -0.04352379 0.15324664 0.029048553 -0.05589928
0.13846444 -0.73321354 0.2549774 0.2928689 0.07603602 0.10376867 0.06868563 0.11695535
0.30518165 0.42277187 -0.13865235 -0.057355728 0.21374217 0.20542943 -0.3426184 -0.35097355
0.18117234 0.1854666 -0.072483025 0.16163425 0.035435997 0.14921422 -0.05902257 -0.023362938
0.71205586 0.017236985 0.29773468 0.007572862 0.0192995 -0.0013074398 -0.04577684 0.022217046
0.18531999 0.41533464 -0.002354083 0.06729397 0.055598937 0.04392994 -0.1196838 0.045446653
0.092765875 -0.65316564 0.2654626 0.24137983 -0.117552795 0.19146979 -0.2408001 0.15942205
-0.0014575829 0.12232167 0.18322346 -0.094458655 -0.024058921 0.072752416 0.11975186 0.06863168
0.0024352435 -0.014646517 -0.017584892 -0.00928142 0.038676567 -0.16243912 -0.07605978 -0.2371249
0.10670801 -0.45541424 0.21017903 0.21627517 -0.18857223 -0.18447526 0.082588546 -0.032449167
-0.02973796 -0.05739707 0.07267225 -0.26644045 -0.08287074 0.15767738 0.43255103 0.38373455
00000000: 3bee 65be 996f 903d 3127 a4be fc04 ae3e
00000010: 1872 b9bc c7e7 543d 65ed a6bd 611e 683d
00000020: 54a1 0e3e 879f a53e c407 033f 9872 e53b
00000030: 5cba 7b3e bd9a e0bd 1292 3d3e ddb3 0c3c
00000040: 49c9 a53d 2f59 b23e 1945 bd3e 27b2 053e
00000050: e4fc 00bd 1ab5 80bc 10ef 0dbc 551e 133d
00000060: 7adb 953e 72be 353f 4bc1 ccbd 0c3c 6bbe
00000070: 4fb0 e93d d38d 1e3d 41d9 52bd d5b7 783d
00000080: f749 c13d adfd 05be d7ea b8bd 5110 80bd
00000090: 767c d53d 234a 89be 482a 0c3e 3c2d a13d
000000a0: 543d 043f 0921 ee3e 9a92 933d da54 00be
000000b0: a546 37be 35cc 6bbe fdde 893e 82eb 4bbe
000000c0: a696 0b3c 8bdb 693e bdf8 953e 0796 243e
000000d0: 4f5d e33e ab26 813e ad45 b43e c7d7 0e3e
000000e0: 275d d7be 456f c7bd 50b9 b0be ba52 d7be
000000f0: e326 a2be 97c4 8c3d 2d62 87be d257 aebe
00000100: 8dd0 09be ccf0 de3b 32e3 953e 0995 5bbe
00000110: acb8 b03c 9484 213e 5195 01bf 7cd5 b13d
00000120: d47e d3be 57e0 2b3d 87c1 053e 89d2 90be
00000130: 8d51 d23b 6f37 50bb 46a5 f83d 7f36 cfbd
00000140: 471d e2be 3d4d a13e 777d 3ebe c5f5 9ebd
00000150: 601b 683d 7531 19bd af2f 923d 6413 adbd
00000160: 4f1b 713d e1cd dc3d adc2 0ebb fc07 143e
00000170: 659b 4bbe cda7 d4bd 4dc2 79be 7675 fbbc
00000180: 98a5 753e 78c1 4e3e 9624 c93e 43e4 713e
00000190: bd0a 003e 536e 4c3e e72e 673d 7d27 9f3d
000001a0: 10d4 d1bd 4258 36bd b892 36be 3d7a d53c
000001b0: 8b67 183e ec3b c33e 7dca 09bf f6bf abbe
000001c0: 38e5 af3d f8df d3bd 8c36 9cbc b863 9f3e
000001d0: 161f 53be 381a 93be 5d03 8a3d 434c eebd
000001e0: ead3 87bd 7446 053e 2615 dc3c 993f de3d
000001f0: 4fdc 1f3e 08e5 53be abd2 75be 7a3a fb3d
00000200: 9b5b e9be 8641 d53d 2970 893e 0141 2d3e
00000210: 8e08 11bd 17d8 62be 66f7 dbbe bba4 913e
00000220: 1154 9f3d dc4f 3d3e 3085 143f 1fda a73d
00000230: 3d22 aa3e 29a4 2d3e 506f 1fbe 1de1 17be
00000240: 4fa0 a23d b9ed 85be 0216 22be 595f 52be
00000250: aeff c9be 2c30 18bc a781 853e 65d4 2ebe
00000260: a54d 4d3e d770 98be d84f d0bd a83a dabd
00000270: fbb8 21be e8a2 a8bd 2a72 6f3c b34f cebe
00000280: e1a2 5f3d 1807 c5be 652a 023e 34ec 083e
00000290: 9e9b 813d a7d9 e6bd f76f 583d 885e 34bd
000002a0: 0ee4 3abd cfcc 373e 4199 f33d 7d8a 433d
000002b0: 0046 32bd b0ec 1c3e 3bf7 ed3c a5f6 64bd
000002c0: 9fc9 0d3e e2b3 3bbf 668c 823e eaf2 953e
000002d0: c6b8 9b3d ab84 d43d 0dab 8c3d 4986 ef3d
000002e0: c540 9c3e 8e75 d83e e2fa 0dbe d7ed 6abd
000002f0: 3adf 5a3e 185c 523e ae6b afbe ceb2 b3be
00000300: 3e85 393e f5ea 3d3e fb71 94bd 7383 253e
00000310: 5625 113d 9dcb 183e a6c1 71bd a263 bfbc
00000320: 4b49 363f 9434 8d3c ae70 983e c525 f83b
00000330: fc19 9e3c 665e abba 7f80 3bbd 8600 b63c
00000340: 86c4 3d3e bea6 d43e f546 1abb 6cd1 893d
00000350: b6bb 633d e1ef 333d c81c f5bd 4526 3a3d
00000360: 09fc bd3d dd35 27bf b7ea 873e 462c 773e
00000370: 85bf f0bd a810 443e 4d94 76be 893f 233e
00000380: 5e0c bfba c983 fa3d ee9e 3b3e 8a73 c1bd
00000390: 3717 c5bc 38ff 943d 7740 f53d c48e 8c3d
000003a0: 9b98 1f3b f2f7 6fbc 310e 90bc 1911 18bc
000003b0: 526b 1e3d 7156 26be 3bc5 9bbd dfd0 72be
000003c0: bb89 da3d 0e2c e9be 2c39 573e 3d77 5d3e
000003d0: 1419 41be 15e7 3cbe 2f24 a93d 6be9 04bd
000003e0: 069d f3bc 3119 6bbd 30d5 943d e26a 88be
000003f0: 22b8 a9bd 2e76 213e 5477 dd3e db78 c43e

sequential_2/dense_12/MatMul f4 [30, 240]
-0.13092439 -0.09385654 -0.06013607 -0.060085546 -0.032104157 0.0674946 0.009590973 -0.107028894
0.09264581 -0.15120992 0.22230646 0.0068946555 0.11208213 0.15878128 0.149225 0.052931517
-0.052715015 0.1235043 0.04977799 -0.040020812 0.08204328 -0.026904276 0.16682394 -0.00059129874
0.13899809 0.04380631 -0.03557411 -0.070024185 0.021701923 0.025072038 -0.027381608 -0.24182777
-0.043937746 -0.28153086 0.16864738 -0.119340494 -0.074558385 -0.16657448 0.11252336 0.07464301
0.102955066 -0.04393952 -0.0308652 0.04434849 -0.29637036 -0.08460753 -0.06662959 -0.10687223
-0.026687376 -0.09258245 0.0071713687 0.03196582 -0.0670543 0.13551255 0.20295733 0.04976232
0.034377836 0.12053668 0.051901586 -0.16800341 -0.08813647 0.01739747 -0.05218975 0.17338306
-0.13602307 -0.1904428 -0.08648338 0.08396371 0.015577909 0.07785515 -0.07048471 -0.12643956
0.08578125 -0.123326816 0.061477587 -0.18668711 0.16854374 -0.08092911 -0.11893586 -0.16679014
-0.10759829 -0.07494413 -0.28608036 -0.16226831 0.048403285 0.098153114 0.046128053 -0.002685432
0.022583341 0.012287266 -0.053208727 0.0024041596 -0.23937428 -0.08634404 0.0417889 -0.022372568
0.14127283 -0.08569862 0.0787515 0.075356334 0.089863434 -0.049863696 -0.07785893 0.034654338
0.16805118 -0.006887039 0.032291643 0.020868886 0.031457044 0.16966061 0.0025694324 0.07063335
-0.067963146 -0.044758648 -0.013303267 0.022286909 0.0678193 0.07025596 0.022633946 0.009303264
-0.21251985 -0.2366144 -0.09752348 0.06700084 0.013858388 -0.031322096 0.12380279 -0.08249435
0.06084153 -0.23517637 0.007282618 -0.08144632 -0.08366038 0.17245257 -0.0644121 -0.10727687
-0.20227268 0.13270691 -0.045691952 -0.03180016 0.07434071 0.08129575 -0.12435544 0.081492744
-0.13039447 -0.1276283 -0.026380284 0.17889698 -0.013112687 -0.17584765 0.06267653 0.03889791
0.014278619 -0.16295491 -0.014577768 -0.10667054 -0.033946037 -0.028506204 -0.11351094 0.2363761
0.17705444 -0.04500246 -0.28388962 -0.035362944 -0.24885668 0.031692382 -0.14460425 -0.10805591
0.16763836 0.036284532 0.08737711 0.018469257 -0.027912091 0.13047706 -0.06010903 -0.13091412
-0.123242915 -0.074225605 -0.042061944 0.018731857 0.15966175 -0.067779444 -0.23815887 0.09672292
-0.075298995 -0.0939813 0.17508665 -0.18517941 0.07043529 -0.020254476 0.11222213 0.07600979
0.10194383 -0.06272422 -0.09880467 -0.1516227 -0.06914496 0.17713109 -0.20484428 -0.026902098
0.17968652 0.08057062 0.123440154 -0.10999916 -0.27941248 -0.20181175 -0.17698915 0.14306073
0.018014535 -0.054382164 -0.10572735 0.106845714 -0.070125066 -0.13444184 -0.1907165 -0.08556816
-0.12576847 0.040080186 0.097030655 0.023825726 0.016553622 0.015073548 -0.038936198 -0.15087025
0.07171469 -0.040039115 0.031914175 -0.018806344 -0.21428427 0.08426529 0.00045085777 -0.06636712
0.1284432 0.040105898 -0.2173615 -0.13506289 -0.10306029 -0.20504548 0.053636268 -0.10919801
0.12353549 -0.07678469 0.049978644 0.0055256146 -0.12025439 -0.134575 0.0749266 -0.08396534
-0.013958558 -0.017356435 -0.020152945 -0.16622572 0.10573174 -0.115771785 0.049828637 -0.05705847
00000000: 0b11 06be dc37 c0bd 3d51 76bd 431c 76bd
00000010: a67f 03bd 9c3a 8a3d 7523 1d3c f731 dbbd
00000020: 16bd bd3d c6d6 1abe 4ea4 633e 90ec e13b
00000030: 518b e53d 8f97 223e 70ce 183e b8ce 583d
00000040: b3eb 57bd d3ef fc3d 01e4 4b3d ddec 23bd
00000050: 4f06 a83d 5b66 dcbc e5d3 2a3e 6301 1bba
00000060: 8455 0e3e 3f6e 333d 28b6 11bd d768 8fbd
00000070: 3bc8 b13c e063 cd3c 654f e0bc b3a1 77be
00000080: 11f8 33bd d024 90be e6b1 2c3e ca68 f4bd
00000090: 11b2 98bd 8092 2abe a672 e63d 6fde 983d
000000a0: 1bda d23d edf9 33bd 04d9 fcbc c3a6 353d
000000b0: dbbd 97be b646 adbd 1875 88bd d4df dabd
000000c0: 7c9f dabc de9b bdbd cdfd ea3b 97ee 023d
000000d0: c453 89bd cdc3 0a3e 0cd4 4f3e 93d3 4b3d
000000e0: c6cf 0c3d efdb f63d c296 543d 1609 2cbe
000000f0: e580 b4bd 2485 8e3c ebc4 55bd 548b 313e
00000100: a249 0bbe 7003 43be 331e b1bd 2af5 ab3d
00000110: 7c3a 7f3c 8572 9f3d 4a5a 90bd 5f79 01be
00000120: 14ae af3d c592 fcbd eccf 7b3d e82a 3fbe
00000130: bb96 2c3e 29be a5bd a594 f3bd 09cb 2abe
00000140: 7e5c dcbd 4f7c 99bd 2079 92be aa29 26be
00000150: 8642 463d 8004 c93d c5f0 3c3d 13fe 2fbb
00000160: b300 b93c 8750 493c 65f1 59bd 1b8f 1d3b
00000170: 881e 75be 25d5 b0bd d62a 2b3d ad46 b7bc
00000180: d3a9 103e c282 afbd 7748 a13d 6c54 9a3d
00000190: 520a b83d e03d 4cbd 8174 9fbd b5f1 0d3d
000001a0: 9c15 2c3e acac e1bb 3e44 043d 3af5 aa3c
000001b0: 1ad9 003d 83bb 2d3e ec63 283b 38a8 903d
000001c0: 4330 8bbd d854 37bd f2f5 59bc 0993 b63c
000001d0: d8e4 8a3d 5be2 8f3d d36a b93c b86c 183c
000001e0: ce9e 59be 0c4b 72be 64ba c7bd bd37 893d
000001f0: 4b0e 633c 994b 00bd 518c fd3d ccf2 a8bd
00000200: f834 793d 13d2 70be 07a3 ee3b 54cd a6bd
00000210: 2256 abbd 6897 303e 7eea 83bd fab3 dbbd
00000220: 9220 4fbe 52e4 073e 7c27 3bbd e240 02bd
00000230: f13f 983d 637e a63d 11ae febd abe5 a63d
00000240: 2186 05be feb0 02be 771b d8bc c530 373e
00000250: 98d6 56bc 6811 34be 8d5c 803d 6a53 1f3d
00000260: def0 693c a7dd 26be 97d7 6ebc 1676 dabd
00000270: 000b 0bbd d885 e9bc 6c78 e8bd 940c 723e
00000280: c24d 353e 8054 38bd fb59 91be bcd8 10bd
00000290: 49d4 7ebe dfcf 013d 2313 14be 6b4c ddbd
000002a0: 64a9 2b3e 179f 143d c5f2 b23d d74c 973c
000002b0: e6a7 e4bc c79b 053e e334 76bd 5a0e 06be
000002c0: c866 fcbd 9803 98bd 2549 2cbd 8d73 993c
000002d0: 5f7e 233e f3cf 8abd ebdf 73be ab16 c63d
000002e0: 5c36 9abd 4579 c0bd ea49 333e ac9f 3dbe
000002f0: 6140 903d b7ec a5bc b7d4 e53d 05ab 9b3d
00000300: edc7 d03d 8e75 80bd 1a5a cabd fb42 1bbe
00000310: df9b 8dbd da61 353e b3c2 51be ca61 dcbc
00000320: beff 373e 3602 a53d 31ce fc3d 3d47 e1bd
00000330: 270f 8fbe bda7 4ebe a53c 35be 837e 123e
00000340: 3893 933c d5bf 5ebd 9587 d8bd edd1 da3d
00000350: bb9d 8fbd 1fab 09be 304b 43be 5c3e afbd
00000360: 73c9 00be 1f2b 243d 02b8 c63d 2b2e c33c
00000370: 769b 873c 0bf7 763c 907b 1fbd bb7d 1abe
00000380: 27df 923d 0e00 24bd 70b8 023d c30f 9abc
00000390: 566d 5bbe 4893 ac3d 1b61 ec39 7ceb 87bd
000003a0: 9d86 033e 1546 243d 0394 5ebe ed4d 0abe
000003b0: 4611 d3bd 71f7 51be b4b1 5b3d 35a3 dfbd
000003c0: 2d00 fd3d 4b41 9dbd 68b6 4c3d 3710 b53b
000003d0: ef47 f6bd 07ce 09be 1e73 993d 05f6 abbd
000003e0: 70b2 64bc 152f 8ebc ca17 a5bc 1337 2abe
000003f0: e289 d83d c219 edbd 1d19 4c3d 24b6 69bd

sequential_2/dense_13/MatMul f4 [1024, 30]
0.037122115 0.057335217 -0.017804543 0.000567583 0.042932507 0.013994107 -0.0061801407 0.018025538
-0.057380106 0.021263584 0.0016930052 0.07123941 -0.0005129057 0.0611826 -0.016641522 0.0052599795
-0.06738678 0.00088220264 0.046356373 -0.03630285 0.030493462 -0.0024936874 -0.05587514 -0.0006123629
-0.044898693 0.006842058 -0.02664513 0.016981535 -0.0028747022 -0.04100889 0.048882212 -0.048091624
-0.0265837 -0.00055449444 -0.06323259 0.023581183 -0.0434747 0.040495567 0.0008588289 0.05510202
0.0021789896 0.010291672 -0.00027754856 0.0638597 0.0028232643 0.0005389528 0.008420379 -0.037469584
0.04298613 0.056073043 0.033216815 0.00046694535 -0.044820648 0.0009684089 -0.021784717 -0.00020920277
-0.026495595 0.0060443496 -0.0035330981 -0.009482247 0.024425251 -0.056725577 0.021637032 -0.000111547444
-0.056396544 -0.009742139 -0.04213723 0.05427269 0.027198128 -0.013926819 -0.0013951315 -0.031206764
-0.00042946127 -0.029732352 -0.018187543 -0.005056841 -0.04288183 0.026765985 -0.02951307 -0.022122798
0.03750628 0.0036828255 0.042548664 0.0020759006 0.017645402 -0.0040367106 -0.08435155 0.052403174
-0.0017277228 -0.052302305 -0.009520457 0.033566467 -0.04484067 -0.0007288988 0.012918011 -0.020762727
-0.087885134 -0.025387011 -0.03768823 -0.008210336 -0.0013246962 -0.057280876 -0.0004089237 -0.027979877
0.058899168 0.015195576 -0.047766995 -0.03163402 -0.01571572 -0.08874436 -0.039871585 0.0018753491
0.04423151 -0.00128985 -0.01938253 0.0005365439 0.017161625 0.046649538 0.0017226093 -0.0003743214
0.03913086 -0.017621959 0.016294159 -0.0011869267 0.0059290905 -0.033049427 -0.014550773 0.02290355
-0.07630896 0.013811759 0.000296389 -0.013134381 0.0004997623 -0.05055202 0.061291613 -0.006119024
-0.02130606 0.0424686 -0.06261687 -0.011404241 0.07048702 -0.0001838715 0.030363828 0.0017367348
0.034683786 0.009585546 -0.048001766 0.060606115 0.0012894557 0.040947013 -0.06724543 -0.04022619
0.039347578 -0.0011564245 0.029577501 -0.019012656 -0.029910147 -0.053072583 -0.015471129 -0.021824177
-0.0033877578 -0.051845245 -0.0009161046 -0.04682606 -0.034490075 0.0012149957 -0.023489725 0.054501124
-0.07700168 0.06123979 -0.018028507 0.00051496824 -0.03070994 -0.0012439523 0.02893801 0.0003221723
0.052492466 0.08012283 0.0029971614 0.02801959 -0.015004746 0.04749042 0.027594734 -0.0013986849
0.010230086 -0.029615888 0.06815073 -0.041436397 -0.039824877 -0.037376214 0.0005671747 0.012674357
0.0011663949 -0.046823133 0.048950307 0.0006127651 -0.029279102 0.063297965 -0.043975472 0.047104366
0.047044426 0.00042210653 0.021643229 6.159508e-05 0.003395741 0.004907362 0.054976135 0.018211935
-0.0019925525 -0.0205435 0.027215902 -0.0467007 0.03167479 -0.0006698127 0.022580186 -0.012976923
0.057964206 0.0054034963 -0.0025320337 -0.049880005 0.00026554806 -0.060126103 -0.00025672113 0.025056064
-0.036640078 -0.0007313187 0.053909935 -0.044946223 -0.028945101 0.02941731 0.065167494 -0.0029648251
-0.051909354 -0.0008052075 0.0626173 0.008225328 0.015199929 0.06251589 0.0033409877 0.032764677
0.023842486 -0.045688536 0.043571167 -0.00015455617 -0.022007765 0.066134766 -0.049779397 -0.048274253
0.030024903 -0.034739897 6.0025715e-05 0.004941656 -0.00096625596 0.067942545 -0.044769786 0.00530551
00000000: 5c0d 183d 55d8 6a3d d5da 91bc dac9 143a
00000010: ffd9 2f3d 8a47 653c c782 cabb 4baa 933c
00000020: 6707 6bbd f830 ae3c d4e7 dd3a f8e5 913d
00000030: 8574 06ba 9b9a 7a3d cd53 88bc e85b ac3b
00000040: 1502 8abd 9e43 673a 2ee0 3d3d 4cb2 14bd
00000050: 6dcd f93c 226d 23bb 55dd 64bd fb86 20ba
00000060: b1e7 37bd 5833 e03b e346 dabc dc1c 8b3c
00000070: 8065 3cbb f0f8 27bd b738 483d b9fb 44bd
00000080: 0fc6 d9bc 7e5b 11ba 1780 81bd 532d c13c
00000090: 8712 32bd aede 253d 0823 613a a8b2 613d
000000a0: 61cd 0e3b 679e 283c f083 91b9 e0c8 823d
000000b0: 8406 393b 8348 0d3a a1f5 093c b579 19bd
000000c0: 3912 303d d9ac 653d 5b0e 083d 58d0 f439
000000d0: db95 37bd d2dc 7d3a dd75 b2bc 715d 5bb9
000000e0: 4a0d d9bc ae0f c63b 8d8b 67bb 6d5b 1bbc
000000f0: 7717 c83c 1459 68bd 2540 b13c 94ee e9b8
00000100: 1000 67bd 7e9d 1fbc 1798 2cbd 0a4d 5e3d
00000110: 9cce de3c 502d 64bc d8dc b6ba 54a5 ffbc
00000120: 5129 e1b9 4391 f3bc 0bfe 94bc dbb3 a5bb
00000130: dca4 2fbd 5744 db3c 65c5 f1bc df3a b5bc
00000140: 2fa0 193d 8f5b 713b 8247 2e3d d50b 083b
00000150: 178d 903c 6246 84bb 81c0 acbd b6a4 563d
00000160: c274 e2ba f13a 56bd b1fb 1bbc fe7c 093d
00000170: daaa 37bd 9213 3fba 11a6 533c 9816 aabc
00000180: 1ffd b3bd 6cf8 cfbc f95e 1abd a584 06bc
00000190: 6ea1 adba 5a9f 6abd cf64 d6b9 0e36 e5bc
000001a0: 4140 713d ddf6 783c 53a7 43bd ad92 01bd
000001b0: 41be 80bc 9abf b5bd 6350 23bd 46ce f53a
000001c0: 1a2c 353d 2f10 a9ba 1dc8 9ebc daa6 0c3a
000001d0: 8996 8c3c 9613 3f3d 2dc9 e13a 9140 c4b9
000001e0: ae47 203d ed5b 90bc 547b 853c a792 9bba
000001f0: d148 c23b d65e 07bd 5e66 6ebc 3aa0 bb3c
00000200: df47 9cbd b74a 623c a864 9b39 9631 57bc
00000210: 7b02 033a a30f 4fbd ea0c 7b3d 1882 c8bb
00000220: 0c8a aebc 8ef3 2d3d 463d 80bd dbd8 3abc
00000230: 805b 903d a1cd 40b9 90bd f83c 26a3 e33a
00000240: 9610 0e3d b20c 1d3c 809d 44bd 1e3e 783d
00000250: f402 a93a 0eb8 273d f9b7 89bd 38c4 24bd
00000260: ed2a 213d 2b93 97ba 844c f23c 6ec0 9bbc
00000270: 2006 f5bc a362 59bd 9e7a 7dbc 9ec8 b2bc
00000280: 2505 5ebb ae5b 54bd bd26 70ba afcc 3fbd
00000290: 7745 0dbd 7e40 9f3a 866d c0bc 923c 5f3d
000002a0: 0fb3 9dbd 93d6 7a3d 85b0 93bc effe 063a
000002b0: 6993 fbbc 1d0c a3ba 680f ed3c 3ce9 a839
000002c0: 5702 573d 7017 a43d 066c 443b 5789 e53c
000002d0: 77d6 75bc 5185 423d 5a0e e23c 1454 b7ba
000002e0: 179c 273c 059d f2bc 9c92 8b3d 36b9 29bd
000002f0: 691f 23bd cd17 19bd 73ae 143a 1ba8 4f3c
00000300: b8e1 983a 9dc9 3fbd 1e80 483d f8a1 203a
00000310: bada efbc 5da2 813d a01f 34bd 82f0 403d
00000320: a8b1 403d 2e4e dd39 244d b13c 9b2c 8138
00000330: 158b 5e3b f0cd a03b a82e 613d 3231 953c
00000340: 7c95 02bb d84a a8bc e2f3 de3c 3c49 3fbd
00000350: 6dbd 013d 5f96 2fba 15fa b83c 299d 54bc
00000360: e06b 6d3d d00f b13b 7af0 25bb fa4e 4cbd
00000370: 4239 8b39 ca46 76bd 8798 86b9 6042 cd3c
00000380: e813 16bd f8b5 3fba aad0 5c3d 8819 38bd
00000390: 471e edbc 92fc f03c 8976 853d 834d 42bb
000003a0: e79e 54bd 9014 53ba 803d 803d 87c3 063c
000003b0: 1f09 793c 5508 803d 79f4 5a3b 4134 063d
000003c0: 5151 c33c e723 3bbd ae77 323d 5b10 22b9
000003d0: a149 b4bc aa71 873d 7be5 4bbd 39bb 45bd
000003e0: c9f6 f53c 6c4b 0ebd 1fc4 7b38 9ded a13b
000003f0: 574c 7dba 7625 8b3d 8660 37bd d8d9 ad3b

sequential_2/dense_14/MatMul f4 [1, 1024]
-0.000131635 0.00021451674 0.00017296032 1.4510177e-05 0.00012841313 0.0003745989 -0.00033114143 0.0003594932
0.0001301282 -0.000115994444 0.00033745967 8.8987814e-05 -8.036518e-05 0.0004116462 0.00016313851 -0.00023318386
0.00025234366 -0.00024725043 0.00019920763 -0.00024049592 0.00028274214 0.00030094254 -6.766389e-05 0.00045153796
0.00010417662 -2.4756224e-05 0.00013271194 -6.8921225e-05 -0.00031169553 -9.983806e-05 0.00020407385 0.0001525442
-0.00024935338 0.00013260554 0.00026158252 -0.000572678 0.0001924405 0.00013829512 3.822199e-05 -0.00018098374
-0.00017843366 -0.00011848383 0.00016506374 -0.00043583356 -0.00016917828 0.00015862289 1.8509356e-05 -0.000110572015
3.1121017e-06 0.00018713599 -2.3161017e-05 -8.7106106e-05 0.00013222129 0.00018528895 0.000104178376 0.00039076334
0.000106102336 0.00010057191 0.00019168592 0.00020881457 -0.00024524794 -0.00021143736 -0.00034761924 8.408785e-05
6.785536e-05 -4.3156215e-06 -0.00037578662 -0.00015074054 -0.00018571827 0.00014926086 -0.0002218181 0.00023211024
-5.962787e-05 0.0001114725 -0.00027806536 -1.531242e-05 -3.9642884e-05 0.00038138375 -6.540672e-05 0.00013377302
5.0142506e-05 3.1619442e-05 0.00016666186 -0.00021284446 1.8546038e-05 -1.8862844e-05 -0.000108252265 -3.417389e-05
0.00013019283 0.00022523917 -0.00030497427 -0.00011826066 -8.514688e-06 0.00011060169 -0.00014467778 0.00059548137
0.00015446494 -4.451981e-05 0.00015399857 0.0002728624 -7.7437784e-05 0.00028433636 -0.00036579734 3.8603317e-05
-6.758919e-05 0.00018379219 -0.00030787266 -6.628421e-05 0.00036727017 -0.00016838983 -3.2734308e-05 -0.00017439516
-0.00011718944 -0.00030289005 -1.5177916e-05 -0.0003537808 0.00026368053 0.00016374237 -0.00033253964 -7.7777855e-05
-9.625787e-05 -6.188377e-05 0.0002847486 0.00014869976 -0.00022716969 -0.00015669921 0.00010760279 -0.0004865548
0.0002041278 -0.00020248228 -0.00020178138 3.5313722e-05 0.00017669566 -0.0003986788 -0.00031495444 0.00038152767
0.00027146723 -0.00045880282 3.8931626e-05 -0.00013528069 -3.479567e-05 0.00027025188 -0.00012371453 0.00022109496
0.00013929754 0.00026426464 -0.00026060763 0.00016198188 0.00018759683 -0.00042832707 0.0002709131 0.00041711816
0.00010257113 -0.00020857604 0.00019208237 0.00024205423 -5.215714e-05 -0.00023977495 0.00028500977 3.3004708e-05
8.525337e-05 -0.00018039117 -0.00021607385 0.00041359436 -0.00019528983 -0.00023438479 -2.8681952e-05 -9.1625654e-05
-8.687671e-05 0.00026077894 -2.357061e-05 -8.736754e-05 0.00014584736 -0.00013157939 5.7082452e-05 -1.7763876e-05
2.6969443e-05 -0.00014810436 0.00011404259 0.0005920284 0.00034059407 -0.00012325587 0.00015895083 9.813365e-05
-0.00050638115 -5.1123323e-05 0.00027373023 -0.00031189056 -0.00030201307 9.453039e-06 0.00036851407 0.00012458987
9.715356e-05 -1.5102341e-05 -0.00021322923 -0.00020917837 -0.00017125325 0.00025301854 0.00014926883 6.196943e-05
0.00022861896 -9.374888e-06 -0.00025627148 0.00030813355 0.00037912893 -0.000107703476 0.00018824579 0.00050135225
0.0002515936 0.00019780855 0.00034176602 5.483283e-05 -3.7268383e-05 -0.00048388282 0.00022556556 -2.6637801e-05
2.3472832e-05 -0.00012390828 -7.885654e-06 0.00028059984 6.301139e-05 -0.00012397 -9.778932e-05 0.00034714508
-0.00010933721 -0.00025873317 0.00019079834 -9.479511e-05 0.00038479126 9.974772e-05 -6.260994e-05 0.00032288485
-0.00015799855 5.117916e-06 0.07356441 -0.00030785814 -0.000273493 0.00020496336 -0.00029010643 1.361328e-05
-8.74426e-05 0.00035394932 0.0005094046 -7.1156275e-05 5.8097787e-05 -0.000105584324 -0.00032736626 -7.5762706e-05
-0.00010891752 -1.8543788e-05 -0.00010474802 0.0003395984 1.0591029e-06 -8.650072e-05 -0.00032616712 -4.4711094e-05
00000000: 8007 0ab9 e6ef 6039 af5c 3539 bc70 7337
00000010: a3a6 0639 d065 c439 0d9d adb9 5c7a bc39
00000020: 0673 0839 0b42 f3b8 12ed b039 f89e ba38
00000030: ba89 a8b8 38d2 d739 2910 2b39 d182 74b9
00000040: fe4c 8439 64a1 81b9 64e2 5039 a22d 7cb9
00000050: 023d 9439 d3c7 9d39 c6e6 8db8 66bc ec39
00000060: 6679 da38 96ab cfb7 9728 0b39 cd89 90b8
00000070: 116b a3b9 2660 d1b8 a8fc 5539 46f4 1f39
00000080: a5bb 82b9 070c 0b39 0325 8939 c51f 16ba
00000090: dac9 4939 5003 1139 8d50 2038 74c6 3db9
000000a0: ec19 3bb9 867a f8b8 f614 2d39 9780 e4b9
000000b0: 7365 31b9 0254 2639 8a44 9b37 e6e2 e7b8
000000c0: 80d9 5036 ef39 4439 e849 c2b7 bcac b6b8
000000d0: e2a4 0a39 204a 4239 577a da38 5edf cc39
000000e0: 4283 de38 22ea d238 4cff 4839 3cf5 5a39
000000f0: 9f94 80b9 49b5 5db9 aa40 b6b9 5258 b038
00000100: 924d 8e38 e8ce 90b6 3a05 c5b9 1b10 1eb9
00000110: 5ebd 42b9 e882 1c39 d897 68b9 9e62 7339
00000120: f018 7ab8 58c6 e938 4dc9 91b9 2c73 80b7
00000130: 3946 26b8 76f4 c739 f72a 89b8 6c45 0c39
00000140: 1b50 5238 1e9f 0438 f4c1 2e39 002f 5fb9
00000150: 5093 9b37 a63b 9eb7 7e05 e3b8 ef55 0fb8
00000160: 5f84 0839 2e2e 6c39 f4e4 9fb9 b502 f8b8
00000170: 4eda 0eb7 d5f2 e738 a5b4 17b9 141a 1c3a
00000180: def7 2139 c8ba 3ab8 ad7a 2139 f90e 8f39
00000190: 1866 a2b8 fb12 9539 7dc8 bfb9 ffe9 2138
000001a0: acbe 8db8 57b8 4039 f869 a1b9 1002 8bb8
000001b0: 2b8e c039 cd91 30b9 324c 09b8 d8dd 36b9
000001c0: 9ac3 f5b8 37cd 9eb9 a7a4 7eb7 a87b b9b9
000001d0: 9a3e 8a39 42b2 2b39 b758 aeb9 ab1c a3b8
000001e0: 0dde c9b8 99c7 81b8 4f4a 9539 4aec 1b39
000001f0: 6634 6eb9 a04f 24b9 cfa8 e138 4818 ffb9
00000200: 240b 5639 6c51 54b9 4795 53b9 d21d 1438
00000210: 6147 3939 c305 d1b9 7820 a5b9 c707 c839
00000220: b753 8e39 798b f0b9 844a 2338 22da 0db9
00000230: 91f1 11b8 98b0 8d39 5eb9 01b9 bad5 6739
00000240: 6610 1239 008d 8a39 2aa2 88b9 aed9 2939
00000250: a4b5 4439 1691 e0b9 5709 8e39 a7b0 da39
00000260: 751b d738 34b5 5ab9 b869 4939 f0cf 7d39
00000270: 4dc3 5ab8 196c 7bb9 5d6d 9539 896e 0a38
00000280: 0eca b238 6327 3db9 e291 62b9 b2d7 d839
00000290: b7c6 4cb9 30c5 75b9 069a f0b7 2627 c0b8
000002a0: 9431 b6b8 28b9 8839 80b9 c5b7 1739 b7b8
000002b0: 9aee 1839 93f8 09b9 d16b 6f38 a203 95b7
000002c0: 703c e237 764c 1bb9 262a ef38 5a32 1b3a
000002d0: c391 b239 3f3e 01b9 0aac 2639 1acd cd38
000002e0: aabe 04ba 406d 56b8 7383 8f39 3e85 a3b9
000002f0: 8257 9eb9 7e98 1e37 1f35 c139 57a4 0239
00000300: ecbe cb38 1060 7db7 4996 5fb9 e456 5bb9
00000310: 7292 33b9 93a7 8439 0c85 1c39 96f5 8138
00000320: 6fb9 6f39 d648 1db7 2d5c 86b9 fc8c a139
00000330: d3c5 c639 ddde e1b8 d863 4539 2e6d 033a
00000340: 52e8 8339 d46a 4f39 0f2f b339 4efc 6538
00000350: 9f50 1cb8 a7b1 fdb9 cb85 6c39 3e74 dfb7
00000360: 86e7 c437 60ed 01b9 a04c 04b7 791d 9339
00000370: fb24 8438 f2fd 01b9 3e14 cdb8 0601 b639
00000380: f84b e5b8 94a6 87b9 0a11 4839 bdcc c6b8
00000390: cfbd c939 a62f d138 754d 83b8 df48 a939
000003a0: 6aac 25b9 90ba ab36 f0a8 963d 0568 a1b9
000003b0: 9c63 8fb9 6feb 5639 6d19 98b9 9864 6437
000003c0: 6361 b7b8 4692 b939 9089 053a bc39 95b8
000003d0: 06ae 7338 276d ddb8 5ba2 abb9 cbe2 9eb8
000003e0: a66a e4b8 7b8e 9bb7 2aac dbb8 200c b239
000003f0: 8026 8e35 b867 b5b8 6901 abb9 2c88 3bb8

sequential_2/dense_11/MatMul;sequential_2/dense_11/BiasAdd f4 [240]
-0.025397977 -0.024817366 0.37002736 -0.057278175 0.12023451 -0.05841449 0.13007069 -0.02297782
-0.15227422 -0.37480706 0.31622627 -0.43178603 0.08942596 0.32600105 -0.32246447 -0.18032388
-0.14339153 -0.050099485 -0.12203221 -0.021532653 -0.12546548 -0.01337123 -0.042017676 -0.3247634
0.119519755 0.047833238 -0.18402597 -0.008974031 -0.21729648 -0.29954687 -0.012366023 -0.14395653
-0.0852357 -0.21077913 0.28438738 -0.008284319 -0.26074234 -0.17222211 -0.43808657 -0.20184639
-0.3845481 -0.14435653 0.0111274645 -0.0007454612 -0.70921934 -0.0157793 0.10137522 0.11388671
0.08200125 -0.017084634 0.04038665 -0.03138182 0.08280651 -0.038517587 -0.6425303 -0.06777255
0.07765451 0.00036127638 -0.06300733 -0.13419472 -0.44035757 -0.07112399 -0.067216665 -0.020466868
-0.32088307 -0.08527311 0.03546444 -0.041368987 0.2234316 -0.012820203 -0.068111666 -0.019781154
0.25718006 0.07199672 -0.4726143 0.5583723 -0.17376105 -0.06571524 -0.18077752 -0.20848133
-0.3600947 -0.0024670681 -0.29103118 -0.1910209 -0.034200076 -0.0055723814 -0.019785745 -0.166138
0.06968078 -0.1716028 -0.11536965 -0.05380816 -0.105081476 -0.0082566105 -0.15572423 -0.40333536
-0.03957942 -0.038396724 0.010631958 -0.2663285 -0.094844826 -0.2222039 -0.113153145 0.16496748
-0.0128011685 -0.06532245 -0.1999969 -0.20176318 -0.07576322 0.05214966 -0.056194615 -0.015353819
0.17968592 0.07820169 -0.21342833 0.24350497 0.22142486 0.13996458 -0.037140094 -0.14118838
-0.086872004 0.08713614 -0.036323015 -0.6076876 0.14375208 -0.0145750465 -0.027224254 0.014502281
-0.30073464 -0.07802329 0.20916548 0.11266063 -0.047420777 -0.23097986 -0.024548817 0.03746068
-0.077341676 0.11664234 0.17154993 0.10020537 0.01943811 -0.32242933 -0.0006185679 -0.20869718
0.12579992 -0.109193385 0.070434995 -0.0486495 -0.11814953 -0.055487234 -0.23794882 -0.02621189
-0.051479638 -0.6756262 -0.14081974 -0.046932932 -0.38136244 -0.059597388 -0.12119211 -0.18880875
-0.01713779 -0.023889037 -0.035293527 -0.031002384 -0.42020696 -0.27473214 0.05548048 -0.16597673
0.032499526 -0.030184845 -0.07905297 -0.04848078 -0.03472585 -0.056700975 0.07514147 -0.0016704069
-0.09164446 0.12646756 -0.10094794 0.09234235 -0.023682494 -0.0031422349 0.0046177097 -0.09693903
-0.08264 0.011712661 0.095119394 -0.10064376 0.3528022 -0.089129016 -0.21840486 -0.04516701
-0.051451728 0.38645914 -0.084656306 -0.13942702 -0.01579199 -0.05750177 -0.17433108 -0.10927498
-0.2233107 -0.10562817 0.01540559 -0.24566004 0.10989669 -0.095813 0.099525526 -0.04786318
0.02365634 -0.06903002 -0.20571555 0.18827383 -0.13698435 0.016850261 -0.037639506 -0.20735545
-0.009345152 0.054658305 -0.17113157 -0.11517933 -0.041616812 -0.12861273 0.09537412 -0.15288085
-0.069579326 -0.03231584 -0.019939853 -0.12941614 -0.119180955 -0.5157891 -0.004630831 -0.00044897752
-0.0036896074 -0.0048205443 -0.15541676 -0.35288632 -0.12388135 -0.08953309 0.122009024 -0.048454795
00000000: 6b0f d0bc ca4d cbbc 3a74 bd3e 859c 6abd
00000010: 833d f63d 0844 6fbd 4031 053e fb3b bcbc
00000020: c6ed 1bbe b6e6 bfbe 69e8 a13e 0f13 ddbe
00000030: f524 b73d 9ce9 a63e 101a a5be d3a6 38be
00000040: 3bd5 12be 1e35 4dbd 06ec f9bd 3f65 b0bc
00000050: 067a 00be 0113 5bbc ba1a 2cbd 6347 a6be
00000060: c6c6 f43d c9ec 433d 4e71 3cbe d007 13bc
00000070: f882 5ebe 355e 99be dc9a 4abc 5769 13be
00000080: 0e90 aebd 7cd6 57be 399b 913e f4ba 07bc
00000090: 0580 85be fe5a 30be e24c e0be d2b0 4ebe
000000a0: 7de3 c4be 33d2 13be f84f 363c 0e6b 43ba
000000b0: 668f 35bf 9743 81bc d09d cf3d 6f3d e93d
000000c0: 45f0 a73d 13f5 8bbc 796c 253d 398a 00bd
000000d0: 7696 a93d 9ec4 1dbd de7c 24bf 56cc 8abd
000000e0: 5409 9f3d b269 bd39 fd09 81bd 576a 09be
000000f0: 8c76 e1be 74a9 91bd e4a8 89bd 22aa a7bc
00000100: c94a a4be aba3 aebd 2943 113d 8772 29bd
00000110: 41cb 643e d40b 52bc 217e 8bbd 160c a2bc
00000120: 1bad 833e 0473 933d 80fa f1be 7df1 0e3f
00000130: 6bee 31be b695 86bd be1d 39be 217c 55be
00000140: 555e b8be 89ae 21bb 0a02 95be fc9a 43be
00000150: 6115 0cbd 8698 b6bb b715 a2bc 1420 2abe
00000160: ccb4 8e3d a5b8 2fbe ec46 ecbd f265 5cbd
00000170: f534 d7bd bc46 07bc 2c76 1fbe f981 cebe
00000180: 081e 22bd e245 1dbd aa31 2e3c 365c 88be
00000190: 013e c2bd 6b89 63be d6bc e7bd 3ced 283e
000001a0: febb 51bc c7c7 85bd fdcb 4cbe 029b 4ebe
000001b0: bf29 9bbd e29a 553d 532c 66bd 968e 7bbc
000001c0: 96ff 373e 3528 a03d f58c 5abe 5e59 793e
000001d0: 33bd 623e e052 0f3e 3620 18bd b093 10be
000001e0: f3e9 b1bd 6f74 b23d 71c7 14bd 6a91 1bbf
000001f0: bf33 133e 2dcc 6ebc 6605 dfbc fa9a 6d3c
00000200: e4f9 99be adca 9fbd 7a2f 563e 9eba e63d
00000210: 4a3c 42bd fc85 6cbe 9a1a c9bc 5f70 193d
00000220: 5065 9ebd 2ee2 ee3d c9aa 2f3e 7938 cd3d
00000230: ac3c 9f3c 7515 a5be 6427 22ba b7b4 55be
00000240: b2d1 003e c8a0 dfbd 3940 903d b344 47bd
00000250: 61f8 f1bd 9546 63bd dba8 73be 51ba d6bc
00000260: 50dc 52bd d7f5 2cbf 0d33 10be bf3c 40bd
00000270: f041 c3be 641c 74bd 9233 f8bd 1557 41be
00000280: 8d64 8cbc f1b2 c3bc f28f 10bd b6f8 fdbc
00000290: 5e25 d7be b1a9 8cbe 803f 633d cef5 29be
000002a0: 391e 053d 3546 f7bc 86e6 a1bd c893 46bd
000002b0: b13c 0ebd 483f 68bd c5e3 993d 8ef1 daba
000002c0: 17b0 bbbd b680 013e cbbd cebd fc1d bd3d
000002d0: ca01 c2bc f4ed 4dbb 2850 973b f887 c6bd
000002e0: 293f a9bd 76e6 3f3c f5cd c23d 511e cebd
000002f0: 7da2 b43e 4689 b6bd 86a5 5fbe 0b01 39bd
00000300: 0cbf 52bd f9dd c53e 4960 adbd f5c5 0ebe
00000310: 345e 81bc fa86 6bbd d983 32be 90cb dfbd
00000320: 8fab 64be 9553 d8bd ba67 7c3c 4e8e 7bbe
00000330: 8411 e13d 9b39 c4bd 0ad4 cb3d 2f0c 44bd
00000340: f1ca c13c 9c5f 8dbd 19a7 52be dbca 403e
00000350: a045 0cbe 8f09 8a3c e22b 1abd fd54 54be
00000360: 691c 19bc 63e1 5f3d 1d3d 2fbe 24e3 ebbd
00000370: 6476 2abd 0eb3 03be 8253 c33d cc8c 1cbe
00000380: 9b7f 8ebd 9d5d 04bd e758 a3bc aa85 04be
00000390: 2515 f4bd c10a 04bf 3abe 97bb be64 ebb9
000003a0: 57cd 71bb a8f5 9dbb 9225 1fbe 84ad b4be
000003b0: 81b5 fdbd 205d b7bd dedf f93d 8978 46bd
