models/model_forward_v4.tflite (tflite, 163444 bytes, 7 tensors)

sequential_1/dense_7/BiasAdd/ReadVariableOp f4 [30]
000000 b6 dc 14 be 56 bc da bd 41 d7 e6 bd bb b1 b2 bb
       -0.1453732 -0.106804535 -0.11271525 -0.005453316
000010 b8 c3 ed bc d1 e2 9f bd b5 26 03 be 80 d6 0f be
       -0.02902399 -0.07806934 -0.12807734 -0.14046669
000020 32 03 fe bc 33 01 34 3c f7 d9 1f bc d6 9a b3 bb
       -0.031007383 0.010986614 -0.009756557 -0.0054811044
000030 6c 21 3d 3d 99 0f 59 be ec 44 63 be 22 c1 29 bc
       0.04617445 -0.21197356 -0.2219426 -0.010360988
000040 86 05 45 bd 0a cd 92 bd 7f 93 42 be fa 24 4d be
       -0.04810097 -0.07168014 -0.19001578 -0.20033637
000050 cd 1f 99 bd 19 b0 b6 bd 83 f4 a1 bc a4 16 55 bc
       -0.07476769 -0.08920307 -0.019769913 -0.013005886
000060 a4 3f 47 be b6 06 01 be 08 73 4c 3d da 29 59 be
       -0.1945787 -0.12600216 0.04991439 -0.21207371
000070 38 c5 ad 3c c0 e5 3b bd
       0.021212205 -0.045873404

sequential_1/dense_5/MatMul f4 [4, 4]
000000 66 4f 4c bf 0f 87 12 bf f7 ff 24 3f 78 62 00 bc
       -0.7980865 -0.57237333 0.6445307 -0.007835977
000010 37 00 d5 be 27 61 a7 3e 95 b1 ce 3e 21 6e 9b bf
       -0.41601726 0.3269131 0.4036986 -1.2142984
000020 2e f2 40 bd f1 e2 f5 bd 36 9b 0b bf 7b cb 7e bf
       -0.04710596 -0.12006176 -0.5453371 -0.99529237
000030 b3 8b 59 bf ae a6 ef 3e c7 f4 13 bf 17 dc ae 3e
       -0.8497879 0.46806854 -0.57795376 0.3415229

sequential_1/dense_6/MatMul f4 [240, 4]
000000 d6 47 fd bd 02 17 20 3e 98 b3 a3 be 08 c8 53 bd
       -0.12367217 0.15633777 -0.31972957 -0.051704437
000010 96 84 07 3e 39 cb 83 bd 91 22 0c 3f d1 02 83 3e
       0.13234171 -0.06435246 0.54740244 0.25588086
000020 e1 33 b0 bb 82 17 c9 be bf f8 f0 be d8 46 1b 3e
       -0.005377278 -0.39275748 -0.47064778 0.15163743
000030 6d 70 fe bc e3 4f 78 bd 78 35 c3 bc b1 54 b5 bc
       -0.031059468 -0.06062306 -0.023829207 -0.02213511
000040 fb 2f b1 3d f6 05 a8 3e 73 bf d5 3e 68 24 81 bd
       0.0865173 0.32817048 0.41747627 -0.06305772
000050 23 49 0f 3e cd 09 97 3d 9a a2 62 bd 22 4c a0 be
       0.13992743 0.07374916 -0.05533085 -0.31308085
000060 d3 01 b1 3e 55 87 5c 3e 1f 11 e8 bd 88 74 3e 3d
       0.34571704 0.21536 -0.113313906 0.04649785
000070 81 29 49 bc 25 94 25 bc 76 50 bd bd 66 1a 98 3d
       -0.012277962 -0.010106121 -0.09243862 0.0742691
000080 c6 6c 89 be 2f f8 0e 3e f0 04 18 be b2 38 77 be
       -0.268408 0.13961862 -0.14845634 -0.24142721
000090 2f 2c e6 bd 5b 87 7a bd 4d e0 08 be f6 92 9d 3d
       -0.11238896 -0.06116424 -0.13366814 0.07694046
0000a0 0c f7 b3 be 99 9a 9c 3d d6 44 18 3e 03 a7 02 3e
       -0.3514942 0.07646675 0.14870009 0.12759022
0000b0 f7 ea 6e bd 96 bd 92 3d 83 59 5f bd 41 4f bb bb
       -0.05832955 0.07165067 -0.054528724 -0.005716235
0000c0 7e 6f da bd 1e 95 a0 3d d0 7f a7 3d a1 73 ef 3d
       -0.10665797 0.07840942 0.08178675 0.11691976
0000d0 fa 16 dc bd 5e 6e 74 be 85 17 7d be c5 60 a3 3c
       -0.1074657 -0.23870227 -0.24716003 0.019943604
0000e0 e9 37 0d 3e 5c 6f f5 3d 7d 49 17 be 48 4d bc bd
       0.1379086 0.11984131 -0.14774127 -0.09194428
0000f0 b6 0e 97 3e 1f a1 c8 3e 90 8c 9e 3e be a9 df bd
       0.2950341 0.39185426 0.30966616 -0.10921048
000100 d7 dd 44 be e6 b7 e9 bd 7f 60 91 3d 2e 7f 48 3e
       -0.1922525 -0.11412029 0.07098483 0.19579765
000110 0b 7b 04 be 60 f4 81 3d 2f f8 b0 be 0a 01 85 3e
       -0.12937562 0.06345439 -0.3456435 0.25977355
000120 00 12 31 bd 77 72 98 bc ff 74 81 bc eb 71 47 3d
       -0.043230057 -0.018609269 -0.015802858 0.048692625
000130 77 9c 32 3e 00 12 31 bc 1b 05 b0 bc a0 74 e2 bd
       0.17442499 -0.010807514 -0.02148681 -0.11057401
000140 60 82 05 3c 6a d2 bc be dc 7d d9 be 0f f9 2a 3e
       0.00814876 -0.36879283 -0.42478836 0.16696571
000150 db a9 f6 bc 9e a7 88 be 0d 0b a0 3e 3e e8 19 3e
       -0.03011029 -0.26690382 0.3125843 0.1503
000160 50 99 a7 3d 68 c9 b4 bd 07 cd 69 bd 1c cc 17 3d
       0.08183539 -0.08827478 -0.057080295 0.03705989
000170 0d d3 2b 3e b4 2d 43 bd 43 11 5e 3c a9 90 2a be
       0.16779728 -0.047651008 0.01355392 -0.16656746
000180 46 76 67 3e 96 26 be 3e 50 0a 2d 3d 6a 0d 2d 3e
       0.22603711 0.37138814 0.042246163 0.16899648
000190 02 fb 43 3d 39 ef bb bd 78 b2 de 3d 58 62 e5 bb
       0.0478468 -0.091764875 0.10873884 -0.007000249
0001a0 bd 6d 8c bd 1a 74 f1 3c 9e 2c cf 3d 8f ce 98 3e
       -0.068568684 0.029474307 0.10115932 0.29845092
0001b0 75 8f 27 3e 58 a4 f8 3d dd 65 cc bd 83 b5 54 be
       0.16363318 0.12140721 -0.099803664 -0.20772366
0001c0 13 88 3f bd 0f 69 52 bd 3e 6a 40 bc df a7 2e 3d
       -0.04676063 -0.051369723 -0.01174408 0.042640563
0001d0 73 7a ab be a9 a9 09 be ab fd 92 3e 98 22 a8 be
       -0.3349186 -0.13443626 0.28709158 -0.32838893
0001e0 08 c0 9d be ed 8d 56 be 17 16 24 3e 8a 8f 71 3b
       -0.3081057 -0.20952578 0.16024052 0.0036859238
0001f0 a4 05 91 3d 42 67 e1 3d 83 13 62 be b4 bd b0 bd
       0.07081154 0.11006023 -0.22077756 -0.08629933
000200 58 db 8f be 00 be 00 3e ba df f9 3b 11 af 8c 3e
       -0.28097034 0.12572479 0.0076255472 0.27477315
000210 6b 54 23 be e4 e0 cd 3d 9d 23 2c bd 18 54 9f bd
       -0.15950172 0.1005266 -0.04202615 -0.077797115
000220 a3 67 3d 3e 43 69 57 be 59 2c 1b bb 8a 62 b0 3d
       0.18496566 -0.21036248 -0.0023677556 0.08612545
000230 18 d0 95 bd 43 af e7 3d 6f 1d 45 be dc 41 c8 3d
       -0.07315081 0.113127254 -0.1924951 0.09778187
000240 f1 44 5c 3e 92 dd 2e 3e ca 36 61 3e 41 8c 38 be
       0.21510674 0.1707671 0.21993557 -0.18022253
000250 9b ae 0c 3d 7a a7 d3 bc d9 c7 94 3d 87 bf e2 39
       0.034346204 -0.025836695 0.072646804 0.00043248778
000260 e2 d2 2c bd b0 eb 78 bd f1 24 1d bc ef 56 65 bc
       -0.0421933 -0.060771644 -0.009591327 -0.013997777
000270 e8 e2 b3 3d 0f cc 6c bc 1f d8 24 3e 23 30 2d be
       0.08783513 -0.014452948 0.16098069 -0.16912894
000280 e8 01 04 3e 3a 1c 37 3d e9 b7 95 3d 42 14 ab 3d
       0.12891352 0.044704653 0.07310469 0.08353473
000290 22 95 84 3d 45 87 28 3f 35 50 11 3c 3d 15 7f bc
       0.06473757 0.65831405 0.0088692205 -0.015569028
0002a0 0c 79 2a 3d c7 1e bd bd a3 b2 97 bd ee ca a5 3d
       0.041619346 -0.09234386 -0.07407119 0.080953464
0002b0 54 f3 97 bc 47 d2 0f 3e 57 f7 01 be 7c b5 9b bb
       -0.018548645 0.14045058 -0.12692009 -0.004751859
0002c0 aa a9 49 bc c0 80 10 3f 31 5e 18 3f e9 8c 73 be
       -0.0123085175 0.56446457 0.59518725 -0.23784222
0002d0 fe 36 f9 bd 9f 98 c2 be dc f8 db be c1 4b 54 3c
       -0.12168692 -0.38007066 -0.42963302 0.012957514
0002e0 62 4d 90 bb eb a2 ac 3d bf e1 bf bc f7 3d 7d ba
       -0.004403756 0.08429512 -0.023423074 -0.00096604176
0002f0 75 38 e7 be ff e1 f2 bd e4 2c 44 3e c6 96 15 bc
       -0.4516026 -0.118595116 0.1915775 -0.0091301855
000300 7d 6e 81 3d c4 00 9a 3e b7 85 d0 3e 77 93 30 3d
       0.06319902 0.3007871 0.40727016 0.043109383
000310 44 41 c4 be f8 cf 72 be b7 b3 78 be 70 1f b8 be
       -0.38331044 -0.23712146 -0.24287306 -0.35961485
000320 70 3a c7 bd eb 1b 95 3d 4f bb 60 3d 79 2a 47 3e
       -0.09727943 0.072807156 0.05486613 0.19449796
000330 48 2a 84 3e c9 0c 8f be df 4a d4 ba f5 48 62 bd
       0.25813508 -0.27939442 -0.001619663 -0.05524536
000340 dd 11 0f be df cb b5 bd 1f 57 92 bd ed ab 68 bd
       -0.13971658 -0.08876776 -0.07145523 -0.056804586
000350 55 6e 3d 3e a5 a2 98 3e 2e 00 a6 3d 9c 2a 97 3d
       0.1849912 0.29811588 0.08105503 0.07381174
000360 e1 2a 45 3d d1 59 bb 3d 35 19 3c 3e d2 29 a0 3d
       0.048136596 0.091479905 0.1836899 0.078204766
000370 0c 93 90 be 80 8a c6 bd 15 8f 50 3e 3e a9 0c be
       -0.28237188 -0.096943855 0.20367081 -0.13736436
000380 e5 3c 19 be 87 26 a0 bd 2f 7b 13 3e 5d 92 0c 3e
       -0.14964636 -0.078198485 0.1440246 0.13727708
000390 e0 de f0 3d 20 2f 18 3e 0b 75 31 be d7 63 51 be
       0.1176126 0.14861727 -0.17329805 -0.20448242
0003a0 6b a8 c7 3e 6a 0c 5f be ee f1 b9 bc 9b b2 62 3e
       0.3899568 -0.2178208 -0.022698369 0.22138445
0003b0 96 17 39 bd fd b2 40 3e 5d a4 22 3d 5d 64 7c 3d
       -0.04518851 0.18818279 0.03970753 0.06161915
0003c0 0b 38 1e be dc 6b 1d be ff 57 4e 3e 01 bf c3 3c
       -0.15451066 -0.15373176 0.20150755 0.023894789
0003d0 39 9c dc bd 5b d2 b0 3d 43 c6 37 be 67 00 42 3d
       -0.107719846 0.08633872 -0.17946725 0.047363665
0003e0 c0 13 bd 3e 1e df d7 3e d3 78 c7 3d c4 e1 4a 3d
       0.3692913 0.42162412 0.09739842 0.049531713
0003f0 41 9a ba 3d 87 9a 0a 3e 8f 2c 82 3e a6 80 a7 3d
       0.09111453 0.1353551 0.2542462 0.081788346

sequential_1/dense_7/MatMul f4 [30, 240]
000000 b0 cd b3 bd 75 46 96 bd 1a 22 19 be 7c 9a 07 be
       -0.08779466 -0.07337657 -0.14954415 -0.13242525
000010 2c a2 10 bd e1 4c 40 bd 62 0c ee bd 74 a3 a0 3d
       -0.03531091 -0.046948317 -0.116234556 0.07843676
000020 14 b8 9f bd 18 9c 70 3d 2f 00 b0 3d 0d f1 03 be
       -0.07798782 0.058742613 0.08593785 -0.12884922
000030 4f af de 3d 8b 81 d1 3c ca f2 b8 bc 3f 83 35 be
       0.10873281 0.025574466 -0.022576708 -0.17725848
000040 6e 98 50 be 4b 86 17 3d 3f d7 89 3d 69 4d 67 bb
       -0.20370647 0.036993306 0.06730508 -0.0035293943
000050 e5 8a b6 bd 5d d2 c0 bd 7e 02 3c 3d 5f 50 da bc
       -0.08913211 -0.094151236 0.045900814 -0.026649652
000060 e7 13 23 bd 44 86 b8 3d 41 12 cd bd 2f 09 8c 3c
       -0.039813902 0.09009984 -0.10013247 0.017094223
000070 15 7f b3 3c 18 ae fd 3b 7b a8 37 3c b2 29 9d bd
       0.021911183 0.007741701 0.0112096025 -0.076739684
000080 8c d2 e7 bb 75 c5 ea bd 3e 3e 86 bd a0 7e 86 3c
       -0.0070746597 -0.11463443 -0.065548405 0.016417801
000090 67 0b eb 3b 36 f8 15 3d 30 c2 23 3e 45 ae ae 3c
       0.00717299 0.036613666 0.15992045 0.021323333
0000a0 6c 8b f3 3d 22 36 26 3e 45 03 ce 3c ed 97 1d be
       0.11891827 0.16231588 0.025148043 -0.15389986
0000b0 20 eb 50 be dc 93 30 3b 1e 30 0b be 3d 47 32 3e
       -0.20402193 0.00269436 -0.13592574 0.17409988
0000c0 23 fc cf 3c cd 36 47 bd 92 43 03 bd 7f 80 29 3e
       0.025388783 -0.048636246 -0.032046862 0.16552924
0000d0 0d 39 00 be 18 67 79 bd 2a 31 b9 3c e7 4d 12 3e
       -0.12521763 -0.060889333 0.022606451 0.1428753
0000e0 a1 94 af 3d 20 30 16 be 17 73 f5 3d 58 a8 cd bd
       0.085732706 -0.14666796 0.11984842 -0.10041875
0000f0 0c 64 67 3d 2e 4d 2f be 12 52 d1 3d b0 b8 67 3d
       0.056491897 -0.17119285 0.10220732 0.056572616
000100 f4 7c ac 3d c8 33 3f bd 5b d7 05 be 63 b1 0f be
       0.084222704 -0.04668024 -0.13070433 -0.14032511
000110 ce 68 c6 3c 5d 59 e2 bc ab d5 ff 3d 17 90 84 3d
       0.024219897 -0.027630502 0.12491926 0.064727955
000120 9d fb 00 bd 17 10 b6 bc 20 96 48 be 78 7b 06 3c
       -0.031489957 -0.02222447 -0.19588518 0.008208148
000130 f6 b5 34 be 2c 73 f9 bc d6 bd f4 3c db 83 13 be
       -0.17647538 -0.030450426 0.029875677 -0.14405768
000140 26 95 17 3e 5b 7e 08 3e 6e bc c5 bd 2c 59 25 bd
       0.1480299 0.13329451 -0.09655081 -0.040368244
000150 b0 a3 f5 3d c2 13 74 bd 23 cd 9a bc 3a 9f 09 3e
       0.119941115 -0.059589155 -0.018896645 0.13439646
000160 69 c5 84 3d da 5e 12 3d 76 4c 9e 3d d0 fb 99 3d
       0.064829655 0.03573499 0.077294275 0.075187325
000170 19 1b 1c 3e 69 20 1c 3e b5 88 00 3e 98 11 1e 3c
       0.15244712 0.15246738 0.1255215 0.009647749
000180 1b 40 77 bd e9 a6 4f be 19 7f 15 be f3 74 58 be
       -0.06036387 -0.20278515 -0.14599265 -0.21138363
000190 e3 c1 0d bd c3 de 76 3d a2 6f 24 be 4e 2b 84 bd
       -0.034608733 0.060271036 -0.1605821 -0.06453572
0001a0 7e 4d 32 be b6 15 ff bc 80 1c e5 3d 57 75 2b 3e
       -0.17412373 -0.031138282 0.111870766 0.1674398
0001b0 d7 c0 56 3e ac f3 86 3d 2a a4 f1 3c 7d cf 28 be
       0.20972 0.065894455 0.029497225 -0.164854
0001c0 fb 3d 04 be 1c bc 10 bd f7 6c a2 3d 4c b1 0a 3e
       -0.12914269 -0.035335645 0.0793094 0.13544196
0001d0 c5 28 1b 3e cd 29 4b 3d 48 74 66 3c cf 97 12 3e
       0.15152271 0.04960041 0.01406581 0.14315723
0001e0 11 89 8a 3d 6d 8d a5 bd e0 8c c2 bc ea 94 62 bd
       0.067644246 -0.080836155 -0.023748815 -0.055317797
0001f0 bf eb cb 3d 7f 9d 9d bd 12 a6 4c 3d 63 57 b8 3d
       0.099570744 -0.076960556 0.049963064 0.09001043
000200 6c 52 d5 3d 0f c9 06 3d 27 e6 2c be 46 bc d9 bd
       0.10416111 0.03290659 -0.16884671 -0.106316134
000210 df b6 05 be db da 9a bd ba a7 d8 3d ec 3e ce 3c
       -0.13058041 -0.075612746 0.10578866 0.025176488
000220 d7 2f a3 3d c7 91 58 be 2d e7 77 be d2 ec 1c 3e
       0.07968109 -0.2114936 -0.2420928 0.15324715
000230 86 1a 23 bd 5a a0 83 3d b7 b4 9c 3d bd 66 fa bd
       -0.039820217 0.06427069 0.07651656 -0.12226627
000240 a3 61 b0 bd 48 26 8d bd b9 13 e8 3c 5a c0 85 bd
       -0.08612373 -0.06892067 0.028329717 -0.06530829
000250 b2 9e ee bd 79 53 e0 3c 4e 41 54 3d e4 eb 20 bd
       -0.116513625 0.027383553 0.051820092 -0.039287463
000260 d6 63 15 3d 22 59 b6 bc 9c a2 b4 3d fc 0a 96 bd
       0.036472164 -0.022259299 0.08820078 -0.07326314
000270 94 d6 a9 bd be 50 ea 3c 54 e8 fc bd 1f 1c 7a 3d
       -0.08292881 0.028602954 -0.123490006 0.061061975
000280 35 af 3a bd 7b 9b 7b bd 36 f2 fd bc 15 25 20 be
       -0.045577247 -0.061427575 -0.030999284 -0.15639146
000290 f9 54 39 3e 2c c2 06 3e 5c 64 91 bd 72 b0 e5 3d
       0.18098821 0.13160008 -0.0709922 0.11215295
0002a0 a9 6a 12 3e 89 39 ac 3a bd 00 f6 3d f0 9a 4c 3e
       0.142985 0.0013139705 0.120118596 0.19980979
0002b0 d0 07 88 bd 00 fa 08 3e d9 ca ba 3d 40 39 0c be
       -0.06642115 0.13376617 0.09120721 -0.13693714
0002c0 32 2f 86 3c 61 9c 08 be 7e fd c8 bd 21 02 38 bd
       0.016379926 -0.13340904 -0.09813975 -0.044923905
0002d0 3a 33 99 bd 18 ed ed bd 89 72 12 be b8 d3 b2 3d
       -0.07480474 -0.11617488 -0.14301504 0.087317884
0002e0 6e 7c e2 bd 81 1f 1b 3d 8b 2f 83 3d 04 02 d9 bc
       -0.11058889 0.03787184 0.064055525 -0.026490219
0002f0 07 dd c1 3d 99 a6 4a be 81 dc 36 bd be 01 f1 bc
       0.09465986 -0.19790114 -0.044643883 -0.029419776
000300 70 a6 cf 3d 17 f5 c2 3d f2 0a 3a be 14 f6 7a 3d
       0.10139167 0.095194034 -0.18168238 0.061269835
000310 61 ff 8d bc 63 ce 18 3b 1c c7 9a 3d bd d5 10 bd
       -0.017333688 0.0023316375 0.07557508 -0.035360087
000320 c6 4a 0a be 51 1c d9 3d 2c e0 f0 3c 33 91 27 3e
       -0.13505086 0.10601104 0.029403768 0.16363983
000330 05 b1 c9 3c af 7e c9 3d 83 33 a0 3c ce fc 54 bd
       0.024620542 0.09838616 0.019555813 -0.051998906
000340 7d 8c ae bd 45 df e7 bd ac ed 0d be 06 5b 13 3e
       -0.0852289 -0.11321882 -0.13860196 0.14390191
000350 1f 17 13 be f3 83 73 3c fa 1f e4 3d 62 33 18 be
       -0.14364289 0.014863002 0.111389115 -0.14863351
000360 a4 18 e6 bc d3 ff 05 3e ac 23 27 bd ea 4d e0 3d
       -0.028087921 0.1308587 -0.040805504 0.10952361
000370 2e 22 ac 3d ce b4 16 bd 60 74 85 bd 24 eb 1c be
       0.08404957 -0.036793523 -0.065163374 -0.15324074
000380 f7 ef 83 bc f8 8c 11 bd d1 d0 d5 3c fd 5c d4 bd
       -0.016105635 -0.03553483 0.026100548 -0.103692986
000390 1a f8 6d 3c d4 42 fd 3d 9e b1 5d bc 77 38 d2 3d
       0.014524484 0.12366262 -0.013531117 0.10264676
0003a0 48 a3 35 3e 4f eb a4 3d 9b c7 ee 3b cd 4f b7 bd
       0.17738068 0.08052694 0.0072869784 -0.08950768
0003b0 67 47 05 3e d3 fe 08 3e 29 67 3d bd f3 99 9f bd
       0.13015519 0.13378458 -0.04624096 -0.07793035
0003c0 81 70 dd bd 04 20 f2 bd 3a 31 4b bd 32 35 95 bd
       -0.10812474 -0.11822513 -0.049607493 -0.07285537
0003d0 90 9b ad bd 0a a5 10 3d b4 ed c8 bd d6 9f de bd
       -0.08476937 0.035313644 -0.09810963 -0.1087033
0003e0 41 ca 82 bd 80 2b 20 bb 5e 50 df 3d f0 6e c4 bc
       -0.06386233 -0.002443999 0.10904001 -0.02397868
0003f0 80 31 ac bd bf ca b2 bd d7 49 94 3d c0 91 49 bc
       -0.08407879 -0.08730077 0.07240646 -0.012302816

sequential_1/dense_8/MatMul f4 [1024, 30]
000000 45 ef 31 3c eb 42 13 3d 20 b8 3f 3d 04 3f 4a ba
       0.010860269 0.03595249 0.046806455 -0.00077150785
000010 a1 51 26 bd 80 90 9e b8 04 8a 1d 3b 0d 33 4f bd
       -0.04060519 -7.560942e-05 0.0024038563 -0.050585795
000020 69 13 4f 3d 22 6b ef ba db 41 53 ba 3a be 1b 3d
       0.05055562 -0.0018266181 -0.00080588245 0.03802321
000030 7f 72 9e ba 28 42 95 3c b6 ea 80 3b 93 f2 92 3d
       -0.0012088566 0.018220022 0.0039342297 0.071751736
000040 df 5f 4c b9 2e 33 63 3d 0d 74 9a 3c 7d 47 23 bd
       -0.00019490671 0.05546873 0.018854165 -0.0398631
000050 53 6c 8d bc aa e6 68 bd f8 5f 6b bd ef 7a ad bc
       -0.017263567 -0.056860603 -0.05746457 -0.021176783
000060 e9 47 15 bd 80 e5 0a bd 01 fc 7e 3b 18 23 84 3d
       -0.036445532 -0.033910275 0.003890753 0.06452006
000070 88 6c 84 bb d2 5c 24 bd 15 97 49 3d c2 ae 00 bc
       -0.0040412582 -0.040127583 0.04921635 -0.0078541655
000080 67 30 36 3d 4c cb e9 39 8f ca 36 3d 70 7c 59 38
       0.044479754 0.0004459269 0.04462677 5.1852723e-05
000090 83 60 7b 3b 88 54 cd bc 4a 39 39 3d 05 11 5f bd
       0.0038357086 -0.025064722 0.04522065 -0.05445959
0000a0 29 18 c0 3a 51 e8 9b ba 2d 7f 07 ba 49 3c 0a 3b
       0.0014655638 -0.0011894797 -0.0005168792 0.0021093062
0000b0 87 e6 85 3d 58 b6 18 3c e3 93 12 3b c9 db 9c 3d
       0.0653811 0.009320818 0.002236598 0.07659108
0000c0 76 c4 64 bd ff 54 97 3b 64 c1 95 3d a8 3e d1 3c
       -0.055851422 0.0046182866 0.07312277 0.025542572
0000d0 8b cd a8 bc 31 84 15 bd 1d 36 73 bd 4b 7a 41 bd
       -0.020605823 -0.03650302 -0.05937778 -0.04723577
0000e0 69 40 a1 3a 37 56 7a 3d f8 cb 18 3d e0 e6 43 3d
       0.0012302521 0.061117377 0.037303895 0.0478276
0000f0 56 2a 9a bd f7 27 22 3d 7c cd 6a bd ef fe f7 3a
       -0.07527606 0.039588895 -0.05732487 0.0018920581
000100 fd 2c 64 bd 49 a6 2b 3a 1d 62 fb 3a 09 42 a0 3c
       -0.055706967 0.0006547911 0.001917902 0.019562738
000110 db b1 02 3c 18 b2 61 bd f5 83 82 ba c0 20 8f 3b
       0.007976974 -0.055101484 -0.0009957539 0.004367918
000120 c8 bf 79 b9 20 02 b9 bc 38 0c 2f bc ad 99 06 3c
       -0.00023817935 -0.022584021 -0.0106840655 0.00821535
000130 bc 30 6b ba b7 c8 45 bd 1b 65 38 3d 04 97 df bb
       -0.00089718006 -0.04828712 0.045018297 -0.0068234224
000140 11 ff 1d 3d 13 77 81 3d ad 67 85 3d 3a 66 fe 3c
       0.03857333 0.0632154 0.06513915 0.031054605
000150 d0 bc 4a 3d 7e 13 41 bd 19 c9 a7 ba 5b de 23 38
       0.049496472 -0.04713773 -0.0012801021 3.9069313e-05
000160 b1 bd 82 bd 85 86 9b bd a3 08 4a bd 68 b8 98 3c
       -0.06383837 -0.07594017 -0.049324643 0.01864262
000170 84 c3 f2 3c 0b 8d cc ba 6b 03 09 bd 70 7c ee 39
       0.029634245 -0.0015605999 -0.033450525 0.0004548761
000180 a2 1f ea 39 16 79 ff 3c 67 7d 9b 3b 98 38 60 3d
       0.00044655526 0.031185668 0.0047451737 0.054741472
000190 e1 3b 3e 3a af f7 21 3d d6 35 81 b7 63 67 b7 bc
       0.00072568475 0.03954285 -1.5403068e-05 -0.022388166
0001a0 35 6c 18 bd 4a 50 0e bd 5e e9 b5 3a 22 74 45 3c
       -0.03721257 -0.03474454 0.0013878753 0.012051614
0001b0 41 1a 48 bd 4a 33 49 3d e3 f8 a8 3b 17 2d d4 bc
       -0.048853163 0.04912118 0.0051566227 -0.025900407
0001c0 1e ba 87 3d 85 da 28 3d 27 2a 74 3d e9 1a da bc
       0.06627296 0.04122402 0.059610512 -0.02662416
0001d0 0e 20 14 3a 62 91 59 3d 1a b7 8e bc 96 ef a0 3c
       0.00056505285 0.053117163 -0.017421294 0.019645493
0001e0 5d 08 a1 bc 44 11 13 bd 67 8e f8 3b e0 4e a9 3a
       -0.019657308 -0.035905138 0.007585335 0.0012917183
0001f0 03 11 29 bd 4f 58 15 ba 3e b9 45 3a c8 06 9a 3c
       -0.04127599 -0.0005697058 0.0007542557 0.018802062
000200 db fe c5 3c 33 f8 7e bd 15 91 14 39 f7 b9 81 3d
       0.024169376 -0.06224842 0.00014168427 0.06334298
000210 c2 c9 bb b8 3d 83 55 3c 45 1a 22 bd 52 82 af bc
       -8.954435e-05 0.013031778 -0.039575834 -0.021424446
000220 ad de 8b 3a 66 dd 71 bd ca d6 0e 3c 4f 63 ec 3b
       0.0010671221 -0.059049033 0.008718202 0.007213987
000230 9c 90 79 bd 33 d3 93 3d 39 07 68 3d 91 c7 00 bd
       -0.060928926 0.072180174 0.056647513 -0.03144032
000240 21 be 7a bc 49 76 62 3d 3b a3 fe ba 5c 21 3b 3d
       -0.015304119 0.055288587 -0.0019427309 0.04568611
000250 6f b7 39 bc b9 ca 43 3d a9 ce 29 bd f7 b1 8c bd
       -0.011335238 0.047800753 -0.041456852 -0.068698816
000260 82 40 f6 3c 52 33 b2 ba 55 0c a0 bc 1d ed 5f 3a
       0.030060057 -0.0013595617 -0.01953713 0.00085421075
000270 d9 6c 0a b8 86 e8 10 3c 61 c5 ea bc 69 97 5e bd
       -3.3003136e-05 0.0088445 -0.02865857 -0.054343615
000280 74 0e f4 b6 af 92 5f bd 1c e1 32 ba 8b cd 4a 3d
       -7.2734492e-06 -0.054583248 -0.0006823705 0.049512427
000290 23 56 94 3c b0 8d 92 3d 6c 3b 06 ba 44 b4 ed bc
       0.01810748 0.07155931 -0.0005120549 -0.029016621
0002a0 49 05 1b 3d 85 07 07 bc 03 ad 70 bc b7 4a 45 3c
       0.037846837 -0.008241539 -0.014689687 0.012041739
0002b0 3c 81 23 3d 12 a8 4f 3d 36 d7 c0 bc 0b 84 f8 3c
       0.03991817 0.050697394 -0.02354012 0.0303364
0002c0 ea 68 fa b9 2d eb 33 bd 7f 2b fb bc c7 53 d7 bb
       -0.00047761883 -0.043925453 -0.030660389 -0.0065712663
0002d0 0b 0c 29 3d a0 5c 51 3d d9 bf 10 bd 75 76 8d ba
       0.04127125 0.051113725 -0.03533921 -0.0010792749
0002e0 32 04 8e bc bb 7a 29 ba 83 08 6b 3a 64 69 3e 3d
       -0.017335985 -0.00064651266 0.0008965807 0.046487227
0002f0 c1 98 f2 3c 47 41 8b 3d 19 5e c7 3a d0 34 0f 3d
       0.029613854 0.0679956 0.0015210538 0.034962475
000300 af 36 06 ba 58 fc 45 bd 18 54 81 3c ef 57 cb 3c
       -0.0005119843 -0.048336357 0.01578717 0.024822203
000310 90 5c 05 3b 8d ab 5e 3d 76 eb 9c bd fe a6 89 3d
       0.002034936 0.054362822 -0.07662098 0.06721304
000320 22 9a 94 3d 20 8c be 3c bf ba 59 bd 87 8e 88 3d
       0.07255961 0.023260176 -0.05315661 0.0666781
000330 04 5c 3a 3d 56 13 64 bd 34 b9 2c b9 18 dd aa bb
       0.04549791 -0.055682503 -0.00016472192 -0.0052143447
000340 68 53 ab 3c 9b 64 30 3c bc 7f 8c 3d c3 04 91 3d
       0.020913795 0.010766174 0.06860301 0.07080986
000350 a8 e5 87 3d 77 19 30 3b 89 71 06 3d 80 ae 07 bb
       0.066356 0.0026870647 0.03282312 -0.0020703375
000360 7a a4 57 3a 12 04 15 bc d2 18 08 3d ce 13 66 bd
       0.0008226108 -0.009095209 0.033226795 -0.05617123
000370 22 e3 02 ba 16 42 fb 3c af 4c aa 39 cd cc 8d bc
       -0.0004992952 0.03067116 0.0003248206 -0.01730957
000380 7d a5 a7 bc 0e 25 67 bd 39 76 04 b9 76 b4 1d bd
       -0.020464653 -0.056431822 -0.00012632542 -0.03850218
000390 6c 51 00 3d 82 c9 28 3b df ca 72 bd 23 75 37 3d
       0.03132765 0.0025754874 -0.059275504 0.044789445
0003a0 2c 19 01 bd 8f dd 32 3d 57 f7 56 bd 14 9c 16 bc
       -0.031518146 0.043668326 -0.052481975 -0.009192485
0003b0 bb 48 8d b9 2d d9 16 bd b3 7e c7 3c a0 70 85 bd
       -0.00026947804 -0.03682821 0.024352407 -0.06515622
0003c0 ff ec 40 bd ba e1 72 bd f3 65 26 bd 5c 2b 97 ba
       -0.047101017 -0.0592973 -0.04062457 -0.0011533308
0003d0 aa b8 0e bd c7 cd 93 3a d2 b5 bb ba 8f 6f 86 bc
       -0.034844078 0.0011276536 -0.0014321154 -0.016410617
0003e0 e9 b4 26 bc a8 54 9d 3d 16 40 e5 ba ba 53 38 bd
       -0.010174968 0.076821625 -0.0017490413 -0.045001723
0003f0 06 13 8f 39 34 1f 74 3d 0e 3c 8c 3d cb 27 0f bd
       0.0002728926 0.05960007 0.06847392 -0.03495006

sequential_1/dense_9/MatMul f4 [1, 1024]
000000 4f 3e c3 38 43 ed 04 b8 8a 80 13 b8 62 9a 8d 39
       9.3099305e-05 -3.169222e-05 -3.5167242e-05 0.0002700864
000010 42 40 4b b9 15 55 47 38 47 d8 51 39 7f c3 9b b9
       -0.00019383527 4.7524536e-05 0.00020012363 -0.0002970956
000020 36 5e 28 39 63 cf 82 b9 5e 2d da 38 56 8b 2a b9
       0.00016056825 -0.00024950047 0.000104035 -0.0001626437
000030 56 3d 9a b7 14 ba 7a 39 6c 7b 44 b8 14 a4 89 b9
       -1.8386792e-05 0.00023911177 -4.6844987e-05 -0.00026252924
000040 bf e1 0f 39 74 7f bc 38 a0 d9 a0 b9 b8 e7 be 38
       0.0001372164 8.9882786e-05 -0.0003067972 9.103067e-05
000050 20 80 fb b7 d4 e3 df b6 18 e3 9b b8 10 73 e9 b8
       -2.9981195e-05 -6.6724406e-06 -7.4332755e-05 -0.00011131738
000060 94 14 04 37 f8 f6 6e 37 56 1e 6c 39 0c 0e 1b 39
       7.872604e-06 1.4243407e-05 0.00022518015 0.00014787185
000070 11 ad ac 38 32 a9 37 b9 78 e1 f2 b5 6f f3 20 39
       8.233835e-05 -0.0001751527 -1.8096025e-06 0.00015349475
000080 d6 7d f7 b8 1d 79 4d 38 2a 6f 92 b9 8a c6 28 39
       -0.000118013166 4.8988604e-05 -0.00027930114 0.0001609569
000090 a4 81 d1 38 d9 6a 6d b9 6c a8 0c 39 72 1c 59 b7
       9.990044e-05 -0.00022641885 0.00013414182 -1.2940831e-05
0000a0 91 c5 64 b9 37 88 8c 38 98 27 35 39 00 49 50 b9
       -0.00021817374 6.701092e-05 0.00017276255 -0.0001986362
0000b0 e0 06 af b8 c8 14 a7 b8 78 2d 35 37 78 cb ae 39
       -8.345931e-05 -7.967051e-05 1.0799027e-05 0.00033339462
0000c0 50 f9 2c 37 65 a8 ce b8 4a 3f a7 b8 36 6e 20 b8
       1.03100465e-05 -9.8542114e-05 -7.974969e-05 -3.8249615e-05
0000d0 06 d3 01 b9 d2 89 66 39 96 ca b4 38 8b 14 af 38
       -0.00012381011 0.00021985851 8.6208034e-05 8.348477e-05
0000e0 d7 a7 aa b8 ab 0f ad b8 77 18 a7 b8 b4 92 7f b9
       -8.137494e-05 -8.252201e-05 -7.9677375e-05 -0.00024373346
0000f0 88 48 42 b9 28 e6 96 b8 23 e4 0a b9 28 a1 2e b9
       -0.00018528302 -7.195427e-05 -0.00013245693 -0.00016653968
000100 36 b7 24 b9 c8 be 0f b9 d4 6a 10 b9 69 5c 3b b9
       -0.0001570851 -0.00013708614 -0.00013772707 -0.00017868135
000110 ec 0e e2 b8 60 30 e7 b7 c1 2c b4 39 66 cf 96 b9
       -0.00010779299 -2.7559872e-05 0.0003436562 -0.00028764753
000120 9d 55 c3 b8 ed f6 24 39 e4 db c3 b8 a8 0d 23 39
       -9.314271e-05 0.00015732246 -9.3392824e-05 0.00015549979
000130 72 6b 3a 39 2c 96 fc b7 46 94 0a 3a e5 2d cd 38
       0.00017778369 -3.011067e-05 0.00052863767 9.78371e-05
000140 56 20 99 38 c3 77 2c 39 ba 2e 0d 39 4a 18 ca 39
       7.3016316e-05 0.00016447813 0.00013464215 0.0003854654
000150 e0 c2 c9 36 a4 0d 23 b9 90 49 b6 39 58 5c 8c 39
       6.0129532e-06 -0.00015549973 0.00034768553 0.00026771682
000160 6a 28 22 39 38 a5 e6 37 66 fa bf b7 dd 9b 80 38
       0.0001546458 2.7495073e-05 -2.2885575e-05 6.1325474e-05
000170 fe b1 b5 b8 be d5 b6 b8 21 4f 34 37 58 52 41 37
       -8.663906e-05 -8.718249e-05 1.074726e-05 1.1522869e-05
000180 13 b3 25 b8 de 96 40 39 a3 15 db b8 a1 4a 97 b9
       -3.950584e-05 0.0001836675 -0.00010446764 -0.00028856567
000190 cb 5f fb 37 7c 1e 51 b8 be f7 ca b9 12 f6 a2 39
       2.9966139e-05 -4.9857874e-05 -0.00038713025 0.00031082385
0001a0 3c eb a0 b8 a1 32 a5 38 34 1f ac b8 d0 02 8a b6
       -7.67321e-05 7.8772435e-05 -8.207411e-05 -4.113048e-06
0001b0 87 25 43 39 32 5a 71 38 b7 ce c2 b9 06 2f 12 37
       0.00018610629 5.754288e-05 -0.00037156578 8.713227e-06
0001c0 b5 8f bd 38 36 ac 2f 39 3d 29 0f 39 eb 5a 95 b8
       9.03899e-05 0.00016753454 0.00013652905 -7.1218084e-05
0001d0 c7 6d 0d 39 4a bd ab b9 ca 67 f1 b7 42 0c 94 b8
       0.00013487703 -0.00032756693 -2.877777e-05 -7.059473e-05
0001e0 7e f1 3a 39 da 9a 29 39 e3 57 e8 b9 75 ff 45 b9
       0.00017828305 0.00016174783 -0.0004431597 -0.00018882549
0001f0 2e c6 e8 b8 5e dc 25 b8 ab 74 9a b9 a8 25 77 39
       -0.00011099536 -3.95443e-05 -0.00029460093 0.00023569784
000200 97 14 ac 38 4a 1e 05 38 b5 a0 c5 39 2c d0 8c b7
       8.205434e-05 3.173788e-05 0.00037694504 -1.6786238e-05
000210 12 f1 ea 37 88 a1 f4 b7 06 24 50 b8 1e 0f cb b8
       2.800723e-05 -2.9162286e-05 -4.9624614e-05 -9.68261e-05
000220 a2 d8 68 39 df 64 b5 39 f6 4c 48 b9 a9 c3 f1 b8
       0.00022205946 0.00034598165 -0.00019102157 -0.0001152822
000230 d3 65 fd b8 c4 87 08 38 40 c4 d3 b8 00 00 9c 2f
       -0.00012082946 3.255137e-05 -0.000100978184 2.8376235e-10
000240 f8 32 d6 b7 19 3e e2 38 6a 1d d3 b8 e5 c7 03 39
       -2.5534522e-05 0.000107880864 -0.00010066743 0.000125676
000250 1b 40 3c 38 bf ce 8c b9 d8 95 50 b9 b0 ff 8b 38
       4.4882396e-05 -0.0002685692 -0.00019892247 6.675662e-05
000260 2e 1d 4f 38 4e 88 dd b8 de 94 b8 38 4b 5f ca b7
       4.937982e-05 -0.0001056349 8.8015324e-05 -2.412465e-05
000270 fa 06 5a 38 23 78 a8 b7 1f d6 e2 b9 b6 a5 a3 39
       5.1981748e-05 -2.0083104e-05 -0.00043265612 0.00031213247
000280 2c 42 a7 37 4d c9 fa b8 28 7f 14 39 cc 3d 12 38
       1.9938765e-05 -0.00011958424 0.0001416175 3.4866665e-05
000290 e7 c3 31 38 1e 6e c4 39 20 e8 68 37 fa 36 15 39
       4.2382537e-05 0.00037466077 1.3882323e-05 0.00014230228
0002a0 70 d5 3a 37 1c 6a 3e b9 2b 78 23 39 b6 bf a6 b9
       1.1136159e-05 -0.00018159341 0.00015589657 -0.00031804823
0002b0 53 86 27 39 08 0c 3d 39 30 d9 9e b5 0e a2 e1 38
       0.00015976401 0.00018028927 -1.1835127e-06 0.00010759021
0002c0 80 00 3d 39 6a a8 8e b9 53 df 92 38 c2 1b 15 39
       0.00018024631 -0.0002720983 7.00342e-05 0.00014220088
0002d0 49 65 66 39 cd 32 b1 39 0c b5 0a 39 7a 90 a8 39
       0.00021972241 0.0003379792 0.00013228151 0.000321511
0002e0 30 5e 39 b9 27 d4 d4 38 a3 e7 33 39 e2 57 92 37
       -0.00017678062 0.00010148464 0.00017157062 1.744548e-05
0002f0 5e b6 7a 39 ae 27 6e b9 f8 79 75 b9 f3 35 17 b9
       0.00023909795 -0.0002271223 -0.00023410458 -0.0001442058
000300 fe 6b 2e 39 ea 09 58 38 7e e0 49 b8 d4 14 d8 38
       0.00016634163 5.1507646e-05 -4.813121e-05 0.00010303562
000310 30 e1 2e 39 bc 92 32 39 c5 0e 88 38 44 1c 0c b8
       0.00016677822 0.00017030066 6.4877364e-05 -3.3404925e-05
000320 26 b4 2d b9 1c f4 e6 b8 f5 b6 ba 38 e7 05 8d b9
       -0.00016565676 -0.000110127236 8.9032495e-05 -0.00026898013
000330 0c 90 20 38 1e ba 15 37 e0 3c 8b b5 a7 0b 01 b9
       3.8281127e-05 8.924426e-06 -1.0374024e-06 -0.0001230674
000340 65 0d 1a b9 23 77 6d 38 ac 86 42 37 28 42 98 b8
       -0.00014691574 5.6616158e-05 1.1594657e-05 -7.2602474e-05
000350 f2 1a 3c b9 fa f2 89 39 43 ac 20 b9 b0 da 82 39
       -0.00017939115 0.00026311708 -0.00015322962 0.00024958467
000360 85 1a c4 b8 98 7a cb b7 51 a1 f8 38 a0 eb bf b9
       -9.350948e-05 -2.4256573e-05 0.00011855609 -0.00036605913
000370 14 ed a3 38 92 45 4d 39 d4 84 2a 39 05 ec d9 b8
       7.816605e-05 0.0001957624 0.00016261946 -0.000103913284
000380 dc 0a 3a b8 d7 8b 02 b8 1c fe 24 b8 22 7b 90 39
       -4.435597e-05 -3.112465e-05 -3.9337305e-05 0.0002755756
000390 c0 e8 e5 36 f6 a3 d0 38 b9 21 2f b9 07 69 43 b9
       6.8518275e-06 9.948753e-05 -0.00016701863 -0.00018635775
0003a0 2f 02 01 b9 79 19 02 ba 78 d9 dc 38 c4 ff 8c 38
       -0.00012303212 -0.0004962902 0.00010530924 6.72336e-05
0003b0 6c db 40 38 c0 1e ae 36 7a ef 94 b9 1c 1f de 37
       4.598072e-05 5.189184e-06 -0.00028407184 2.6478949e-05
0003c0 e2 dc 02 b9 6a d6 d6 39 c2 53 f8 b8 80 33 3d b5
       -0.00012480051 0.00040977012 -0.000118411626 -7.048293e-07
0003d0 d5 7a 66 b9 a5 5c 6a 38 35 09 42 39 66 b9 15 b9
       -0.00021980268 5.587623e-05 0.00018504712 -0.00014278814
0003e0 50 20 16 39 8a e3 57 39 0e 1c 92 b9 6d 7d 94 39
       0.00014317152 0.00020588763 -0.00027868192 0.0002832221
0003f0 28 2e 88 39 fb 66 fb b8 6e e4 e0 38 60 4c 01 39
       0.0002597433 -0.00011987794 0.00010723701 0.0001233085

sequential_1/dense_6/MatMul;sequential_1/dense_6/BiasAdd f4 [240]
000000 68 81 d9 be 8c 19 a4 3e 02 21 1b bf 54 1e f5 bc
       -0.42481542 0.3205074 -0.6059724 -0.029921688
000010 53 8c e6 3e ad ca 21 be 77 10 0c be d8 ab 18 be
       0.45028934 -0.15799971 -0.13678156 -0.14909303
000020 2e 44 c6 bd a0 5f 94 be 8d 61 95 bd 39 bc 87 bd
       -0.09680973 -0.28979206 -0.07293997 -0.066276975
000030 fe ca a0 bc cb 3a c6 be f0 be 22 3d 38 88 e2 3d
       -0.019628044 -0.3871673 0.039732873 0.11061138
000040 e9 2f cb bc dc 07 c6 be b2 fe 66 bd bf b4 62 bd
       -0.024803119 -0.3867787 -0.05639524 -0.055348154
000050 bc d2 0d bf ed 20 50 3e 36 fe 1e 3d d0 1a ab bd
       -0.5539968 0.2032506 0.038816653 -0.083547235
000060 6c f1 a2 3e 07 0d f4 ba 21 10 2a 3e 3a 41 70 bd
       0.31824815 -0.0018619605 0.16607715 -0.058655955
000070 cc e0 11 bd 40 53 58 be 01 d0 ed bc 0f 66 bb bc
       -0.035614774 -0.21125507 -0.029029848 -0.022875814
000080 cd 2d a5 bd 80 fa 68 b9 df 6a 28 be 41 29 a2 bc
       -0.080653764 -0.00022218563 -0.16447018 -0.019795062
000090 b2 9d 89 3c ae 0c e0 39 27 f1 c6 bd 6b de 40 bd
       0.016798828 0.00042734056 -0.09713965 -0.047087114
0000a0 75 5f c7 bb 6b c9 0f 3e 47 bc 19 be 5f ca 01 be
       -0.0060843774 0.14041679 -0.15013228 -0.12674855
0000b0 86 44 0a 3c a3 94 09 bf 51 38 39 bd 77 0a 23 be
       0.008439189 -0.53742427 -0.045219723 -0.15921961
0000c0 46 a5 9a 3d 0c e7 7d be 05 2b a7 3d 13 1e 58 be
       0.07551055 -0.24795169 0.08162502 -0.21105222
0000d0 79 a4 a7 bd 40 5a 1f bc 6b 37 63 3d 9a 19 66 3d
       -0.081856675 -0.009726107 0.055472773 0.05617676
0000e0 62 f8 f0 bc c9 46 6b bd b6 ca 23 3e 71 1d b4 bc
       -0.029415313 -0.057440553 0.15995297 -0.021986695
0000f0 71 10 07 3e 69 dc 26 be 11 b0 b4 3d 26 cf 9c 3d
       0.13189866 -0.16295017 0.088226445 0.07656698
000100 80 01 30 b9 ef 3a 19 3f e1 f3 e8 3c 82 f4 ee 3c
       -0.00016785227 0.5985555 0.028436603 0.029169325
000110 79 ec b7 bc 67 f9 c9 bd d1 71 f5 bd 9f b1 21 bd
       -0.022451626 -0.09862023 -0.119845994 -0.039476033
000120 90 e1 88 bc fc 05 1e bb 91 f8 c6 3c be 05 bf be
       -0.01670912 -0.0024112454 0.024288448 -0.37309068
000130 b7 24 c7 bd 89 10 5c bd c5 f7 5e 3e 2a f3 53 be
       -0.097238 -0.053726707 0.21774204 -0.20698228
000140 da 98 2d bf a3 f3 2e 3e ba 92 fd bc cc ec 6b 3d
       -0.6781136 0.17085128 -0.030953754 0.057598874
000150 b0 a6 3f bd 48 bf 0f 3d 22 6e bd 3e 19 a5 77 be
       -0.046789825 0.03509453 0.36998087 -0.24184074
000160 2b 08 52 3d b6 c4 69 ba 46 bc ec bd f9 33 9e bc
       0.05127732 -0.0008917557 -0.11559348 -0.019311892
000170 70 ff c2 be 52 70 70 be 26 85 85 3e fe 12 8e 3d
       -0.38085508 -0.23480347 0.26078147 0.06937216
000180 5a e2 ec bd a2 aa b7 3c 3d e0 59 bc b7 5f 5c bc
       -0.11566611 0.022420231 -0.0132980915 -0.013450555
000190 ae 20 0b 3c 62 e4 6f 3d 6d 8f 17 3d 63 8f 35 3d
       0.008491678 0.058567412 0.037002016 0.044326197
0001a0 86 e1 63 be 1f 57 e3 3e 9c bc 77 bc b0 90 94 3e
       -0.22253999 0.44402406 -0.015120652 0.29016638
0001b0 05 6f 14 bf bd 47 04 3e 02 0a 77 bd de 22 2e be
       -0.579819 0.12917991 -0.06031228 -0.17005488
0001c0 68 65 15 bc a0 40 f4 3d 97 bd 96 bd 14 a0 6b 3e
       -0.009118415 0.11926389 -0.0736038 0.23010284
0001d0 a5 33 b6 3e 4a 48 85 3e 6c 25 7e bc c7 d7 3c be
       0.35586277 0.26031715 -0.015511852 -0.18441688
0001e0 4d 5d 6a be 96 6e 4f 3e 6c 25 50 3e 70 a2 51 3e
       -0.22887154 0.20257029 0.20326775 0.20472121
0001f0 04 ad 59 bb d2 e1 06 3e e9 7b f5 bc f3 19 3f 3e
       -0.0033214698 0.13172081 -0.029966312 0.18662243
000200 d4 6a de bc 54 0f 63 be a5 18 e4 bd c0 1a ac bd
       -0.027150549 -0.22173816 -0.11137513 -0.0840354
000210 93 84 8b bd 8d 1f 96 be 5d b4 2f be 18 af 82 bb
       -0.06812396 -0.29320946 -0.17158647 -0.003988158
000220 d3 0c 01 bf 92 91 58 bd 8c a3 0d 3d 63 b0 9e be
       -0.50410193 -0.0528732 0.0345798 -0.30993947
000230 98 d5 a2 bd d6 23 01 3f d4 bd ff b9 e7 fa 6a bd
       -0.07950896 0.50445306 -0.00048778823 -0.057368185
000240 a5 34 1c 3d fb 95 07 bf 1a cb 7c be c4 07 0d be
       0.038136143 -0.5296323 -0.24686852 -0.13772494
000250 48 6d 85 be f2 ec 66 bd c7 d3 82 bd 6b e7 ba 3b
       -0.26059937 -0.056378312 -0.063880496 0.0057038567
000260 2c cd fa bd 94 28 44 3e 33 ec 8c bc 71 18 5d be
       -0.12246165 0.19156104 -0.017202472 -0.21591355
000270 85 8c 01 3d b4 ac 94 3e 39 72 fc be b5 66 fa be
       0.03162815 0.29038012 -0.49305895 -0.48906484
000280 cd 0e 3e be 41 54 11 be 00 44 46 bc 88 5f 05 3e
       -0.18560334 -0.14192297 -0.012101173 0.13024724
000290 0f af b4 bd fe 0f 4b be d3 9a 81 be 12 48 0c be
       -0.08822452 -0.1983032 -0.25313434 -0.13699368
0002a0 96 29 07 be 2a c1 d2 be 70 de 66 be 94 4b a7 3d
       -0.13199458 -0.41162997 -0.2254579 0.08168712
0002b0 db 0e 14 bf 58 ef 67 3e c9 ec 54 be f1 d0 00 3e
       -0.5783517 0.22649896 -0.20793451 0.12579705
0002c0 08 70 d6 3a 14 8e 30 3d 62 f7 ea 3c 57 e7 83 bd
       0.0016360292 0.043104246 0.028682414 -0.06440609
0002d0 fa b8 70 bb 0e a9 8f 3c 85 69 00 be 24 b3 51 3b
       -0.0036731348 0.017536666 -0.12540253 0.0031997645
0002e0 ef 0b 43 bd 61 56 cd be 90 fe b5 b9 b1 73 e9 3d
       -0.047618803 -0.40104964 -0.00034712674 0.113990195
0002f0 1d 31 07 bd 79 0c 0d bf 7b 9d c9 3d fb fb db 3d
       -0.033005822 -0.55097157 0.0984449 0.10741421
000300 30 78 d4 bc bf c3 a5 be 0c 38 8a be b8 c9 01 bd
       -0.025936216 -0.32375905 -0.26995885 -0.031686515
000310 da e2 96 bd 76 24 86 bd ce 96 2b be 52 3d a9 bc
       -0.07367487 -0.06549923 -0.16756746 -0.020659123
000320 00 4b 08 bd a4 c0 a1 3c fa f8 8b bd 18 b6 64 3d
       -0.03327465 0.019745179 -0.06834598 0.05583772
000330 76 09 f3 bd 60 c5 90 ba 47 99 f4 3d ae 60 71 3c
       -0.11867039 -0.001104515 0.11943298 0.014732523
000340 2d 04 ff bd ae 5e 92 bc 8d 34 0d 3e 4a 15 7b 3d
       -0.12451968 -0.017867412 0.13789578 0.0612996
000350 90 6f 04 ba dd 4e 1e be 70 7e 88 be 79 0f 00 bf
       -0.00050520245 -0.15459771 -0.26658964 -0.5002361
000360 39 41 9c 3c 66 20 16 3e 92 dc 23 be 60 23 fe b9
       0.01907407 0.14660797 -0.1600211 -0.00048473012
000370 38 31 2f 3b 80 46 4a 3e 53 40 18 be 38 1e 9c bd
       0.0026732218 0.19753456 -0.14868288 -0.07622951
000380 b2 ef e4 3e c2 4f 9f bd 96 ed a3 bd f3 bd f5 bc
       0.44714123 -0.077788845 -0.080043 -0.029997801
000390 4a f1 b8 be f5 55 3d be 59 7c 1d bc 67 d4 05 bf
       -0.3612159 -0.18489821 -0.009612166 -0.52277225
0003a0 a5 49 d5 be 08 2c 04 bd 98 fb 5b bd 25 e5 de bd
       -0.4165775 -0.032268554 -0.053706735 -0.108835496
0003b0 7d d2 08 b9 38 33 19 bd ea 1a 2d bd a5 1b a7 bd
       -0.00013048384 -0.03740236 -0.042261995 -0.0815957
