models/model_inverse_v2.tflite (tflite, 303728 bytes, 8 tensors)

sequential/dense_2/BiasAdd/ReadVariableOp f4 [30]
00000000: 73a2 26bc 17fc e8bb 138a ff3b 8651 80bc
00000010: ae44 173d 16b3 853c 1439 fe3b a6f8 8cbb
00000020: 3d51 b03a 8bfb cdbc 8533 cdbb 7ead e13a
00000030: 0c4d b33c f393 d6bb 0000 0000 2b91 be3c
00000040: d34f 7f3c df3e 533c cc1e 37bb 7d83 9bbc
00000050: 1639 cf3c f364 653b 2b18 94bc 0000 0000
00000060: ec62 a039 c9c7 c4bb 2280 553c 5f8d 903c
00000070: aae0 7dbb 30e8 f9bb
-0.010170567 -0.0071101296 0.007798442 -0.015663873 0.036930732 0.016320746 0.007758269 -0.004302102
0.0013451945 -0.02514436 -0.006262245 0.0017217842 0.021887325 -0.0065483986 0.0 0.02326258
0.015582996 0.012893408 -0.002794194 -0.018983597 0.025295775 0.0035002797 -0.01807793 0.0
0.0003059128 -0.0060052616 0.0130310375 0.017645536 -0.0038738647 -0.007626556

sequential/dense/MatMul f4 [100, 100]
00000000: 6abd 643c 06f6 083e 2010 0fbe bc6c 12be
00000010: debd 543d 84f4 00be cd19 22be 595f 063b
00000020: 4cf5 e83d bc16 c73d 5026 df3d 45e5 a6bd
00000030: 5281 14bd eb29 aebd 483b 7ebd 3542 243d
00000040: 0d4c 20be 7299 97bd 4f4f e0bd 1ad8 a53d
00000050: ebb7 e03d 2042 ca3d aebf cebb ecb3 253e
00000060: 2900 c6bd c7d1 1a3e ed50 8a3d 3f1b c63d
00000070: 2049 323b e87f d3bb a9dc 183e 6bfb 9cbb
00000080: 8acb b9bb fc70 a4bd 55e7 24be fc77 f33d
00000090: 79c2 63bd 4e2c dbbc 935f 5e3d 1231 4dbd
000000a0: eab7 c6bc 2adf 263e 50ca d43d 3675 f4bd
000000b0: 7e55 13be 1d2d d33d b247 07be 65c4 2f3c
000000c0: 2d96 d23c 0ae9 33bc 1350 1f3e e815 f9bd
000000d0: a1de a53d b22d 1d3e 3054 9b3d 2a24 28be
000000e0: 0bdf f03d 653d d0bd 23d6 0f3e b518 e83c
000000f0: 2434 443b 7001 763c 28b2 05be d664 a63c
00000100: 31d8 4bbe 1a7d 0bbe 268d 32be 1244 703d
00000110: 9ab4 283d 199f 18be d9cf 28be e503 1cbe
00000120: 3734 bf3d c549 8fbd 7658 72bd 8a85 143d
00000130: b513 7f3c c0c3 29be 6fac d2bc 3e14 993d
00000140: f1ac eebc 5502 cbbd e380 073e 0fba 053e
00000150: f0d8 ca3d 6c2e e33c 8d97 9f3d 4595 39bd
00000160: 56d6 103e 8805 33be 9f97 fdbd 47e8 2bbe
00000170: df17 183d 850c 813d 30ec acbd 4804 d23d
00000180: 77fb 883d 404b 8dbd 7014 ef3d b624 1abe
00000190: 28c5 34be 8a5c 633d fa31 07bd 6a8d 4b3d
000001a0: 7405 b93d fd1d 29be 764e b7bc 945b 0e3e
000001b0: 96d7 d73c 7dca 21be a513 f4bd 9bff 02be
000001c0: 553b 14be 8589 253e bb68 2ebc ae2a 03bd
000001d0: 6e9e 8a3c 8d15 943d a38b 2a3e 3a9c 26bd
000001e0: 58bf 393d bb79 ca3d c182 d4bb 9652 cebd
000001f0: 1b9c 82bd c07f 0d3c 9f91 9abd fbf5 fbbd
00000200: 2dba d43b 24ce dd3b bd8a 173e c26f 1f3e
00000210: 6323 d7bd fa0a ebbd 9da4 b63d db9e 143e
00000220: b26f 0fbd b0aa cc3d 2b86 35bd 8de7 d43d
00000230: 36af 7b3d a533 123e 65cf 653d 2280 8abc
00000240: ab37 033e d963 1dbe 9dba 87ba 174a 36bd
00000250: 4a87 2abd 3366 1c3e 50b8 0abd 1df6 67bd
00000260: d044 49bc f1f2 523d d400 b4bd d52f a23d
00000270: 0a60 533d ca38 28be 9ed3 d8bd 5113 8d3b
00000280: 8d87 17bd 9a1c 313e 3c92 ddba 3ca3 a6bd
00000290: b7f5 413e 4860 51bc 416e 01be e33b babd
000002a0: a334 08bd c556 163e 926d c43d 37c8 573d
000002b0: 4d98 63bd dedd 12be 3047 df3d 3fbb 093e
000002c0: 57f3 96bd 8282 293e 16d2 0bbe aba3 4d3d
000002d0: b4f6 edbd faf8 a1bd 8bc0 cf3d 778a 793d
000002e0: 3c60 1ebe 6da0 bbbc 2b5d 2cbd ee59 423d
000002f0: ebd5 b23d 4a3c b2bd 4f00 3bbc 9b23 2b3d
00000300: 2c91 833c e78d 193d 7dae 163c a802 45be
00000310: f333 1dbc c4a8 9b3a db0e 303d 6967 0bbe
00000320: 3abe b6bd 4ca6 433c fc86 39be 480f 19be
00000330: 115a 31be b780 223e a345 193e 26d6 0b3d
00000340: 2c77 08bc faec 7dbd cdad b73c 8a29 c1bd
00000350: bf48 b03d 7679 06bd a2d7 c1bd b6f8 0a3d
00000360: 5bf7 a6bd 1cd8 6abd 55e1 933d bff0 303e
00000370: 8d3b 3d3d 9af0 c4bc ba16 313d 27ac 53bd
00000380: 2af7 063e 9c58 2b3e 8a63 22bd 44ca 443e
00000390: 92dd b8bb 2231 023e 46d7 8bbd fc2a 953d
000003a0: 442e 013d 2be4 04be ca13 f7bd 491c ccbc
000003b0: 49cd cbbc fe4f 3a3e 5707 413d df0e 1d3e
000003c0: 0115 353e 5cd4 14be 2db5 1abd 8982 873d
000003d0: 6136 683d 58d6 cbbd ad1b 503d f125 2e3e
000003e0: 513f 043d 00ab 033e 501a 083e e4df 203e
000003f0: 962c 06be 1205 ca3d 6de3 463c de8a 993d
0.013961175 0.133751 -0.13970995 -0.14299291 0.051938884 -0.12593275 -0.15830155 0.002050361
0.11374912 0.09721133 0.108959794 -0.081491984 -0.036256142 -0.08504089 -0.062068254 0.040102202
-0.15654011 -0.07402314 -0.10952627 0.08097859 0.109725796 0.098758936 -0.006309471 0.16181916
-0.09667999 0.15119086 0.067537166 0.096731655 0.002720423 -0.0064544566 0.14927925 -0.0047907135
-0.0056700157 -0.080293626 -0.16103871 0.118881196 -0.055605385 -0.026754525 0.054290365 -0.050095625
-0.024257619 0.16296068 0.103901505 -0.11936419 -0.14388081 0.10311339 -0.13210943 0.010727976
0.025706375 -0.010980854 0.1555789 -0.121623814 0.08099104 0.15349463 0.07584417 -0.16420045
0.11761292 -0.1016796 0.1404653 0.028332094 0.0029938305 0.015014991 -0.13056242 0.020311754
-0.19906689 -0.13621941 -0.17436656 0.058658667 0.04118786 -0.14904441 -0.16485538 -0.1523586
0.09336131 -0.06996492 -0.059166394 0.036260165 0.015568663 -0.16578579 -0.025716988 0.07474564
-0.0291352 -0.09912554 0.1323276 0.13059257 0.09904659 0.027732097 0.07792578 -0.04530837
0.14144263 -0.17482579 -0.12382435 -0.16787826 0.03713214 0.06301216 -0.08443487 0.10254723
0.06688588 -0.068991184 0.1167382 -0.15053067 -0.17653334 0.055508174 -0.033006646 0.04969541
0.09034243 -0.16515346 -0.02237628 0.13902122 0.026347917 -0.157999 -0.119178094 -0.12792818
-0.14475758 0.16165741 -0.010645087 -0.032023124 0.016921248 0.07230673 0.1665483 -0.040676333
0.045348495 0.098864995 -0.0064853136 -0.10074346 -0.06377431 0.008636415 -0.07547306 -0.123027764
0.0064919204 0.0067689586 0.14799018 0.15569976 -0.10504796 -0.11476703 0.08918116 0.14513724
-0.03501863 0.099934936 -0.044317406 0.10395727 0.06144639 0.14277513 0.05610599 -0.016906802
0.12814204 -0.1537012 -0.0010355298 -0.04450425 -0.041632928 0.15273361 -0.03386718 -0.056631196
-0.012284473 0.05150122 -0.087892205 0.079192795 0.05160526 -0.16427913 -0.10587238 0.004305281
-0.036994506 0.17296067 -0.0016904543 -0.08136603 0.18941389 -0.012779303 -0.12639715 -0.09093454
-0.033253323 0.14681537 0.095912114 0.052681174 -0.055565167 -0.14342448 0.1090225 0.13450335
-0.07370632 0.16553691 -0.1365436 0.050204914 -0.116193205 -0.07908817 0.101441465 0.060923066
-0.15466398 -0.022903645 -0.04208104 0.047449045 0.08732208 -0.087029055 -0.011413648 0.041782003
0.016060434 0.037488844 0.009196875 -0.19239295 -0.009594905 0.0011875858 0.042982917 -0.13613667
-0.089230016 0.011941504 -0.18117899 -0.14947236 -0.17319514 0.15869413 0.1496797 0.034139775
-0.008329194 -0.061993577 0.022421742 -0.09431751 0.08607625 -0.032830678 -0.09464957 0.033928595
-0.08152648 -0.057335004 0.07220713 0.17279337 0.04619937 -0.024040509 0.043234564 -0.05167785
0.13180223 0.1673302 -0.03964571 0.19217783 -0.0056416476 0.12714055 -0.068281695 0.07283589
0.031538263 -0.12977664 -0.12064321 -0.024915831 -0.024878161 0.18194577 0.04712614 0.15337704
0.17683794 -0.14534134 -0.03777044 0.066166945 0.056692485 -0.09952992 0.050807644 0.17006661
0.032286946 0.128582 0.13291287 0.15710407 -0.13102946 0.09864248 0.0121391835 0.0749719

sequential/dense_1/MatMul f4 [240, 100]
00000000: 9f32 e13d c4e4 8a3b 709d 253e 9351 fabd
00000010: e866 583d e668 523d b66c eabd ea9c d93c
00000020: ee11 313e 20d8 efbc 9520 b13d 5b07 99bd
00000030: 7ebe 9dbd 8426 023e 9c44 dc3d 16cc 133d
00000040: b4ed 8c3d 34ba ecbd 5f59 ae3d 6470 65be
00000050: 6b08 afbd 8100 a43c 2b43 14be 9fe0 fa3d
00000060: 8181 933d 053f 293c 55a7 33bd 5fad c4bd
00000070: fce9 903d 3c96 b23d a98f 08be bece ac3d
00000080: 386d 9f3d 5071 18be b13b 1b3d db86 f33d
00000090: 4d80 07bd d254 a03d 84a5 113d 2fb6 dabc
000000a0: 866e 82bc cd8b 343d 30ec abbb c4fe 243d
000000b0: a53d c9bd 162e ecbd 1866 c53b a7d3 98bc
000000c0: 2c86 083e 9f3a d43d 22b6 733c 9ed3 40be
000000d0: 3a06 99bd edb9 653d a682 423d 9e25 65bd
000000e0: 8de4 0fbe 120a 053e 6a7c b53c 9e4a 1c3e
000000f0: f8e1 103e 584a 1f3e 60d9 e7bd b44b 46be
00000100: 9f31 5c3e 188b 9bbd 02c0 fbbd 6a9a 07bd
00000110: 4428 6ebd 83f4 043d bb16 9d3d dcd9 34bc
00000120: 1686 c5bc e18e 963d 8b1d ccbd 7444 bcbd
00000130: bb2b 353e f9fd ddbc 0cc7 c23c 0c85 5ebc
00000140: fd93 993d 52bc dabc 7a27 20bd ae09 40bd
00000150: 6098 ef3a 26ef efbc fa2f dfbc 2d2c 5a3d
00000160: 155a ffbd 0bb1 733d d22f abbd 629c ee3d
00000170: f3d8 133d 65fd afbd acab a2bd 9673 1abc
00000180: 712c 6dbd 8f31 9abd 45aa c83c b26b 6ebe
00000190: f4c5 cd3d 8e23 c0bd 5886 10be a434 b83d
000001a0: 81df 5fbd b882 8bbd 5e2a c93d 0645 6d3d
000001b0: ddd4 f83c 45f5 9bbd d523 a3bd 6db2 3fbe
000001c0: 8d9c ae3d 9545 ce3d 7ffb 793c 6986 c9bd
000001d0: f9a8 98bd b44f de3d 3afd b93c 016f 44bd
000001e0: 85bb 0f3e 5301 6cbc 3003 2b3d 43d3 e6bd
000001f0: 2a94 9c3d 43ac ad3b 94be e4bd a084 933d
00000200: 0908 bf3d 6f9b ca3d e6e1 d33d 4315 5fbd
00000210: 3bce e43d e14d 393e 9e74 443d 371d 38bb
00000220: fdc5 ee3d 9fd9 283d c248 48bd afa6 c8bd
00000230: d56a 033b dab5 31be c6c6 783d 693a 523d
00000240: f149 83bc 2f67 033e 8088 86bd a424 8ebe
00000250: ccf3 c6bb 7562 a2bd 70ce acbb 1c5d 80bb
00000260: fad1 84bd e4e7 18bd 6c9f 23bd a076 15be
00000270: 292f 50bc 7ddb b73d c284 17bc 15f6 e23c
00000280: 5302 a6bd 37e3 5dbd e28c f5bd 7bf3 063e
00000290: 64aa 6bbd a505 afbc 50bc 093e 4a48 a73d
000002a0: f100 5abd dfba 3a3b ac1b d93d 900b de3d
000002b0: 4d5b cc3d d28d 443d a660 d83d 550d 7e3d
000002c0: 7030 c4bc c2d4 9fbd 6d1b ce3d eef3 ce3d
000002d0: a5cc fbbb 50bd 253e 18ef 4a3d 6537 52bd
000002e0: 8337 873d 0c8c 38bd 323d d13d 21a2 9cbc
000002f0: 1717 063e 769c 883d f236 4fbd 2fe7 2fbc
00000300: 718c 82bd 1f58 65bd 8c9c 24be cd5d ff3c
00000310: 869c 38bd 9670 11be b925 563d 1b12 c03d
00000320: 7d05 233d d3bc debd 1c04 27bd d3cb e8bd
00000330: 647b 00be 4701 c53d 841d 813d 6e40 cc3d
00000340: de30 16be f388 c4bd f6e6 a9bc cbc6 80bd
00000350: b659 ebbc f509 23bd ca64 d6bd a7c2 d53c
00000360: 440f b43c 625a 983c e6e6 c1bd 5cc5 d23d
00000370: bc7e 1d3e a24d 7e3b 8ed0 193d a250 6c39
00000380: 1aba babd a5d2 3c3c 716f a23d 250f ac3d
00000390: bc2e b23d 9040 963d 2a84 91bd 3e82 3a3d
000003a0: 10ff c8bd 2369 e2bd 7c5a 223c 1fdb e6bc
000003b0: 7df0 a53c c25c f63d 3bb7 9d3a 8ee2 753c
000003c0: 76e7 f13d 1521 80bc e05c 57bd 06f4 ca3c
000003d0: b089 50bd efb4 093e de79 6cbd 4800 23be
000003e0: 3c7a 0e3e 63b6 c03d 9289 36bd 7132 a13d
000003f0: 3362 d33c e124 7c3d b57d e4bd 16da b2bd
0.10995983 0.004238697 0.16173339 -0.1222259 0.052832514 0.05136957 -0.11446516 0.02656408
0.17291996 -0.029277861 0.08648793 -0.07472106 -0.07702349 0.12710005 0.10755274 0.036083303
0.06881276 -0.11558953 0.0851314 -0.22406155 -0.085465275 0.020019772 -0.14478748 0.12249874
0.07202435 0.010329966 -0.043860752 -0.096033804 0.07075879 0.08720061 -0.13336052 0.084378704
0.07784504 -0.14886975 0.037898723 0.11890956 -0.03308134 0.07828678 0.03555824 -0.0266982
-0.015921842 0.044078637 -0.0052466616 0.040282026 -0.09826211 -0.11532228 0.0060241334 -0.018655611
0.13332433 0.103627436 0.014874967 -0.18830726 -0.07471891 0.056085516 0.047487877 -0.055944078
-0.14052029 0.12992123 0.022154052 0.15262839 0.141487 0.15555704 -0.11320758 -0.19364816
0.21503304 -0.075948894 -0.12292482 -0.033106245 -0.05814387 0.032459747 0.07670351 -0.01103827
-0.024111789 0.07351471 -0.099665724 -0.09192744 0.17692463 -0.027098643 0.023776554 -0.013581526
0.0749893 -0.026701126 -0.039100148 -0.04688423 0.0018279664 -0.02928884 -0.027244557 0.053264786
-0.12468354 0.059495013 -0.083587304 0.116509214 0.03609557 -0.08593253 -0.079429 -0.009426972
-0.05790371 -0.07528984 0.024495253 -0.2328327 0.10047522 -0.093817815 -0.14113748 0.089944154
-0.05465651 -0.06812042 0.09822534 0.057927154 0.030374939 -0.07615141 -0.07965819 -0.18720408
0.085259534 0.100718655 0.015257715 -0.0984009 -0.07454104 0.10855046 0.022703756 -0.047957424
0.14036377 -0.014404613 0.041751087 -0.11270764 0.076454476 0.005300076 -0.111691624 0.072030306
0.093277045 0.09892928 0.10345821 -0.054463636 0.11172148 0.18096115 0.047962777 -0.0028093585
0.11658857 0.041223165 -0.048897512 -0.09797417 0.002005269 -0.17354527 0.06073644 0.051325236
-0.016026469 0.1283233 -0.06569004 -0.2776233 -0.0060715433 -0.079289354 -0.0052736327 -0.0039173495
-0.06485362 -0.037330523 -0.03994696 -0.14596033 -0.012706556 0.08977411 -0.0092479605 0.027705232
-0.08105912 -0.054171767 -0.11989762 0.13178818 -0.057535544 -0.021364996 0.13450742 0.08168085
-0.053223554 0.0028492732 0.10600981 0.10842049 0.09978352 0.047986813 0.10565309 0.062024433
-0.023948878 -0.07804252 0.10063825 0.1010512 -0.0076843076 0.16185498 0.049544424 -0.05132236
0.06602385 -0.045055434 0.1021675 -0.019120278 0.13094746 0.066704676 -0.05058951 -0.010736271
-0.06374443 -0.055992242 -0.16075343 0.031172657 -0.045071147 -0.14203104 0.05228207 0.09378453
0.039800156 -0.10875859 -0.040775403 -0.113670014 -0.1254707 0.09619384 0.06304458 0.099732265
-0.14667079 -0.095964335 -0.020740014 -0.06287917 -0.028729301 -0.039804418 -0.10468443 0.026093794
0.021979935 0.018597785 -0.094678685 0.102915496 0.15380377 0.0038803597 0.03755241 0.00022536752
-0.09117527 0.011524831 0.07931412 0.08401326 0.0870032 0.07336533 -0.071052864 0.045534365
-0.09814274 -0.110552095 0.0099092685 -0.028180657 0.020256275 0.12029411 0.0012032756 0.015007628
0.11811726 -0.015640775 -0.052578807 0.024774563 -0.05091256 0.13447927 -0.05773341 -0.15918076
0.13913816 0.094097875 -0.04456479 0.07870949 0.025803661 0.061558608 -0.11156789 -0.08733003

sequential/dense_2/MatMul f4 [30, 240]
00000000: 3e7c 41bd 22c0 10bd 1a26 a53d 1a8d 0c3e
00000010: fcaa 433d ecef 14be 9fbd abbd 9031 55bd
00000020: 6753 d5bd e01d d3bd cc9f 393d 25cd babc
00000030: 52d9 46bd 7b46 d53c fa6f ab3d 27f2 0bbe
00000040: d611 dbbd ad92 513d 0090 afbc c2a7 be3d
00000050: 34b4 0fbe 0c13 f9bc 9de2 b0bd 8c72 2b3d
00000060: 203c b0bb c888 383d f8ef 3e3d 051c 0c3e
00000070: 0039 463d 9076 36bc 1ce7 9e3d 5c25 c5bd
00000080: 7854 fd3b e016 04bc ba7b 9d3d 70f2 b1bc
00000090: ae60 01bd 8821 9b3c c836 ccbd 59f0 18be
000000a0: b8df 05be a21f 013d 364c debd d9ee 383d
000000b0: 387a 983d 51af 91bd 1695 4fbd 0e63 39bd
000000c0: dc83 50bd c0cd 573d 8090 c83d d37b 5cbd
000000d0: b879 f3bc 0027 37ba 84a2 17bd ceec d63d
000000e0: b07c c53c a94d 133e 00b4 7dbb a1a8 153e
000000f0: ad04 f7bd b667 0fbe b55e ccbd 8abc f9bd
00000100: e009 58bc c014 4c3b 64e0 b83d ea33 38bd
00000110: 7b48 923d 567b 72bd 06b6 97bd 974e 063e
00000120: 777b a63d 9808 58bd 99d7 043e f8bd 87bd
00000130: f278 783d 4658 cebd a77e 0dbe 343b fd3d
00000140: 66b2 873d 70d8 083d 6898 ae3c 7ec2 00be
00000150: 439f abbd d0f9 0dbc 934e a5bd c54c cfbd
00000160: 2689 06be d00d 9abd 7a9a 01bd 3e65 a9bd
00000170: 55d5 13be ccce 203d 80f9 a53d f2ec 9d3d
00000180: 3c1a 0b3e e085 55bc 4aa1 34bd 2221 de3d
00000190: 2a43 a13d 2a16 0f3e 68e7 e9bd 2537 ceb9
000001a0: 64a0 573d a842 ad3c c468 fabd 5960 043e
000001b0: 32dd 64bd 0985 15bd 86ac bfbd 127e 52bd
000001c0: 600d d7bd d316 d4bd 9dd9 0fbe 58ab edbc
000001d0: 04bf 0bbe 003c e33d 406d c53d 4c0b fbbd
000001e0: 9e98 cabc e885 163d 40f2 d5bd 786d 7c3d
000001f0: 2ef9 68bd daec f23d 1c4d 423d 4aa8 47bd
00000200: 182c bf3d 1829 4ebd bc1c 05be 64a0 bc3d
00000210: 60b3 bdbd cbdf 143e b76a b6bd 4a3d 09be
00000220: 8418 533d a0e0 503d 76f6 13be 644f 4b3d
00000230: c29c 09be 4b58 e13b f51f 183e 8272 27bd
00000240: f756 dfbd 229b c9bd 4daf 15be 6848 aabd
00000250: bcb5 bebd 4d08 163e 94ef a0bd dfd4 073e
00000260: 22b7 babd d265 02be 9be3 663d 70f1 6dbd
00000270: 16c8 873b 9c14 b83d a8e4 edbc 460e 143e
00000280: a0b2 d6bd 95e8 adbd 95ad c5bc 604f 80bd
00000290: a209 fcbd ff35 163e cc1b 34bd 1fe8 163e
000002a0: a0bd d3bd 7e13 653d 5baf 8c3d 174a f3bd
000002b0: 764c 9a3d 0fe7 063e 8619 e83d 2098 72bc
000002c0: c927 00be 7086 593c f60b b4bd 91c4 ed3d
000002d0: be40 28bd 5021 483d 9180 04be 02b7 a9bd
000002e0: 299c debd 240e 17be a98f a8bd 80b7 b7bd
000002f0: 3e61 09be 15ce 40bd e888 13bd de6c afbd
00000300: a057 5abd 4c9c f8bc dede 0e3e 4bf3 05bc
00000310: cc90 a53d 809d 253c 4beb ac3d e6ca 10be
00000320: 70b6 953c 0767 dcbd def4 8bbd 7b79 913c
00000330: a4e1 0bbe 1193 a1bd 9c3c 00bd c8f0 9c3c
00000340: 2072 aabc 1282 bd3d 50ec f93c b9d9 31bd
00000350: 32a7 adbd 1c4a 133e b4e1 643d 0923 0c3e
00000360: 3092 0bbe f07d 1f3d 1080 b2bc bc7a e9bd
00000370: d0ee c2bd 9a2a 45bc acd1 ccbd ac92 213d
00000380: 002a 59bd 8573 453d de64 9a3d b7d5 a93d
00000390: 702e 3d3d 1ee3 68bd d0a6 023d 9af9 823d
000003a0: c233 04bd 1ce9 073d 8e3c 06be b8ac f9bd
000003b0: 8024 f5ba 88d7 e3bc fab0 e93d 47e5 123e
000003c0: e9f1 453d 24f1 1cbe 5eae d83c 5da8 ae3d
000003d0: eca5 1e3d a3b5 b13d c0e0 c2bd 6945 eebd
000003e0: 5cdb 003d 11ab cf3d ff3e 04be 5403 46bd
000003f0: c245 f5bd 994b b8bd 5781 7d3b 8927 e0bd
-0.047237627 -0.035339482 0.08063908 0.13725701 0.047770485 -0.14544648 -0.08385777 -0.05204922
-0.10416298 -0.103084326 0.04531841 -0.022802899 -0.048547097 0.026034584 0.08370967 -0.13666593
-0.10696761 0.05116527 -0.02143097 0.09309341 -0.14033586 -0.03040459 -0.08636973 0.041857287
-0.005378261 0.04505232 0.04661557 0.13682564 0.048394203 -0.011136666 0.07758924 -0.09626266
0.0077310167 -0.008062094 0.076896146 -0.021722049 -0.03158634 0.018936887 -0.09971386 -0.14935435
-0.13073623 0.031524308 -0.1085438 0.045149658 0.074451864 -0.07113517 -0.05067929 -0.04526048
-0.050907 0.052686453 0.09793186 -0.053829025 -0.029721126 -0.00069867074 -0.03702022 0.10494386
0.024107307 0.14385094 -0.0038712025 0.14615108 -0.12061439 -0.14004406 -0.099790014 -0.12194164
-0.013185948 0.0031140298 0.09027174 -0.044971384 0.07142731 -0.059199654 -0.07407765 0.13115917
0.08129018 -0.05274257 0.12972869 -0.066280305 0.060662217 -0.100754306 -0.13817845 0.12364808
0.06625824 0.033409536 0.021312907 -0.12574193 -0.08379986 -0.008665517 -0.080716275 -0.101220645
-0.13138255 -0.07522166 -0.03164146 -0.082712635 -0.14436848 0.039259717 0.08104229 0.07711209
0.13584226 -0.013032407 -0.04409913 0.10846163 0.07874139 0.13973299 -0.1142109 -0.00039332468
0.052643195 0.021149948 -0.12227014 0.12927379 -0.05587501 -0.036503825 -0.09359078 -0.05138976
-0.10500598 -0.10355916 -0.14047857 -0.029012367 -0.13647085 0.110954285 0.096399784 -0.12258014
-0.024730977 0.036748797 -0.10446596 0.061627835 -0.05687826 0.11861582 0.04743682 -0.048744477
0.09334582 -0.05033216 -0.12999243 0.092102796 -0.09262729 0.14538495 -0.08907073 -0.13402286
0.05153705 0.05099547 -0.14449486 0.04963626 -0.13438705 0.0068769804 0.1485594 -0.040880688
-0.10905259 -0.09844042 -0.14617653 -0.08314592 -0.09312007 0.14651604 -0.07858196 0.13264798
-0.09116961 -0.12734154 0.056369405 -0.05809158 0.004143725 0.08988306 -0.029039696 0.1445857
-0.10483289 -0.08491627 -0.024130622 -0.062651396 -0.12306525 0.14669035 -0.04397182 0.14736985
-0.103389025 0.055926792 0.06869384 -0.11879366 0.07534115 0.1317408 0.11332993 -0.014806777
-0.12515177 0.013276681 -0.08791344 0.11609758 -0.041077368 0.048859894 -0.12939669 -0.08286859
-0.10869629 -0.14751488 -0.08230526 -0.08970547 -0.13416001 -0.047071535 -0.036019236 -0.08565687
-0.053306222 -0.030347966 0.13952205 -0.008175681 0.080842584 0.010108352 0.08443316 -0.141399
0.01827547 -0.107618384 -0.06833814 0.017758122 -0.13660294 -0.07889379 -0.0313078 0.019157782
-0.020806372 0.092533246 0.03050819 -0.043420527 -0.084791556 0.14383739 0.05587931 0.1368524
-0.13629985 0.038938463 -0.02178958 -0.11400363 -0.09518206 -0.012034083 -0.10000929 0.039446518
-0.05301857 0.04820587 0.0753877 0.08292716 0.046186864 -0.05685722 0.031897366 0.06395264
-0.032275923 0.033181295 -0.13109037 -0.121911466 -0.0018702894 -0.027812734 0.11410709 0.14345275
0.048326407 -0.15326363 0.026450332 0.085282065 0.038732454 0.086772226 -0.09515524 -0.11634333
0.031459197 0.1014005 -0.12914656 -0.048343018 -0.11976196 -0.08998794 0.003868183 -0.10945041

sequential/dense_3/MatMul f4 [1024, 30]
00000000: b3f0 2c3d 4a56 813c eecd 9bbd 0d0d 923d
00000010: 32a2 953d c9b4 ac3c 6fc9 e63d 90c5 8ebc
00000020: 2c11 40bd 993d 863c 854d 383c e2f6 80bd
00000030: 6343 84bc 29e4 66bd 4831 cc3c a174 7b3c
00000040: 9297 d4bc bd1c 8cbd 3a22 ecbd d740 8bbc
00000050: 0616 73bb fc4d abbd 191c 813b ec60 99bc
00000060: 8fc6 b9bd 5cc3 023b ca45 ca3b 763f 94bc
00000070: b895 103d 18c4 bb3d bead 90bd 32b6 7dbd
00000080: 45c5 523c c359 7fbd c862 923d c572 8e3c
00000090: 1c74 3ebd d9e2 063d 77e7 78bd 8556 5ebc
000000a0: 4e5d 19bd 33ad 143d 6d88 48bd 0686 79bd
000000b0: 349a 973d 34b0 ab3d aee9 88bd a3c9 20bd
000000c0: 143f 013d 9b67 3abe 7c4e 453d 64c2 c3bd
000000d0: 1abe 203d bc75 5c3d ca30 b1bd cef2 4abc
000000e0: 1c53 343d 58b2 b83d 702f 3ebd 8080 1b3d
000000f0: 39dc 1ebd 9303 953d 6f57 533d da58 833b
00000100: 05b8 8d3d 7888 babd 995e 64bd f39e af3c
00000110: 6dc4 513d 22b2 08bd 2caa fbbc 4c7a 683c
00000120: 153d 043d 81df f6bc 302f aa3c 5de5 e03d
00000130: fbd3 7abd ab7f a03d e46f 153e 3de4 21bd
00000140: f6f0 7b3b b9e4 05bd 582c 203d 30e2 c13b
00000150: 81f7 1e3d 1e59 9abc 4ea0 7ebd fd8d 683b
00000160: dc3b e1bc d9e3 853c 8f72 413d 9b65 2cbc
00000170: 5e2e 76bd dc7a 873d 70c5 0abc 4152 f3bd
00000180: 3950 eb3d 15a1 463d 650b 2ebd 1fb0 843d
00000190: 85c9 82bd 0253 b33c 703e cb3c 7438 c6bb
000001a0: 2202 c9bc 75fb a73b b436 5a3d 7e02 8dbc
000001b0: 1d37 e0bd e9fd 8b3d 4c14 633c e214 46bc
000001c0: c469 acbb dc71 653d 0e61 d9bc a8bb 8abc
000001d0: 05ed ccbb 02ed 3ebc 30ae 97bd a15e 74bd
000001e0: 5fa3 e23c c9cb 57bd 1c7d 8e3d a7f3 8c3d
000001f0: 07fd 3fbd 0266 9abc 767f 343d 46b4 eb3b
00000200: 8595 993d c9aa 6bbd 4fa8 c5bc 233a 723c
00000210: 9d31 393d fd6a 993d cbed 2fbd dbb6 dbbd
00000220: 6412 9fbc 6c21 5e3d c05e a0bd 346e bf3c
00000230: d009 683d aee9 9b3d fc0a c4bc f8c3 673d
00000240: e591 87bb 9c71 713d 49c3 963d 2e2a a3bc
00000250: 43f9 663b 7c00 4cbd 6809 3abd 56c7 623d
00000260: 4e74 9abd 5b26 403c 0e24 eb3c c9e0 613d
00000270: bab6 21bd cd37 dbbc fdea d9bc e2d9 a9bc
00000280: 8f03 32bd f30d 7fbc 17bb 06bd 6065 e23c
00000290: a06f 57bb cad1 f93d 2a4e 943d 1f9a 8c3c
000002a0: 1ebe a33d 6367 a2bd 0995 3abd f9c3 b73c
000002b0: 75ab 513d 523e f7bc 7c7a 123e aa13 2cbd
000002c0: 7abf 5d3c 6e6b a33c 3a78 b93c 0017 e63d
000002d0: 9b23 8ebd bcaa 11bd b6f5 0fbd e644 773d
000002e0: e54c e73d b30e 963d 57fd 07be d9d1 70bd
000002f0: b1de e03c 06f9 a43b f600 9bbc 7f62 15bd
00000300: b09e fb3c c27e 89bd c0c1 59bd 1981 213d
00000310: fc9e 9a3c 1eab 84bd 51ba eb3b 16c8 01bd
00000320: dabc d1bc b0d2 883d 2b4d 2f3d 08a3 153d
00000330: 68fd a23d dc14 1dbc 99ba 80bd cfb1 04bd
00000340: 5ad9 33bd c89b 853d 4ac4 1fbd 84a4 533d
00000350: 05ba 703c 134b 25bd 8b71 e6bd 6921 66bd
00000360: 0ebb 45bd 1f6c c33c 4695 f23c df5c e8bc
00000370: 2e2f 0c3d 6fac b0bb 4a19 cebb 20fe 1bbd
00000380: 98c0 5d3d 037c a1bd a687 93bd e0bd 4e3d
00000390: 4d5c 423d 7fd9 fd3d 4a1e 81bb 094b 453d
000003a0: 398e 9dbd df92 0ebd da1a c43d 8397 18bc
000003b0: 64c4 763d a015 9abd 11d5 58bc 1ca2 d4bd
000003c0: 4778 c8bc 9f47 63bd c6c4 453b 1f06 3b3d
000003d0: e085 313d fd6b 63bd 5d78 513d 651b ba3c
000003e0: e603 973d aebc 6abd c121 4a3b 7140 38bb
000003f0: d6cc 87bd 8b79 763d c05e ddbb d501 d03d
0.042221736 0.015788216 -0.07607637 0.071313955 0.07306327 0.021082299 0.11268889 -0.01742819
-0.046891376 0.016386794 0.011248951 -0.06297089 -0.016145414 -0.056369934 0.024925843 0.015347631
-0.02595118 -0.06841419 -0.11529966 -0.016998691 -0.0037091984 -0.08364484 0.003940117 -0.018722974
-0.09071075 0.001995287 0.0061728703 -0.018096667 0.035299033 0.09168261 -0.07064389 -0.061941333
0.0128644155 -0.062341463 0.07147747 0.01738871 -0.04649745 0.032931183 -0.060767617 -0.013570433
-0.037442498 0.03629799 -0.04895823 -0.06091883 0.07402459 0.083832175 -0.06685196 -0.039254796
0.031554297 -0.18203585 0.04817055 -0.095585614 0.039243795 0.053823218 -0.08651884 -0.012386991
0.04402457 0.09018391 -0.04643196 0.037964344 -0.03878424 0.07276072 0.051597055 0.0040083947
0.069198646 -0.091080606 -0.055754278 0.021438098 0.051212717 -0.033373006 -0.030720793 0.014189314
0.032284815 -0.030135872 0.020774454 0.109812476 -0.061237317 0.07836851 0.14593464 -0.039524306
0.0038443184 -0.03268883 0.03910479 0.005916856 0.038810257 -0.018841323 -0.062164597 0.0035485022
-0.027494363 0.016343998 0.047228392 -0.0105222715 -0.060102813 0.066152304 -0.008469924 -0.11880923
0.11489911 0.048493464 -0.042491335 0.06478905 -0.06386093 0.021890167 0.024810046 -0.00604921
-0.02453715 0.0051264116 0.053274825 -0.017213102 -0.10948012 0.06835539 0.01385982 -0.01208994
-0.0052616317 0.056016788 -0.026535537 -0.016935185 -0.006253841 -0.011653187 -0.074062705 -0.059660558
0.027665792 -0.05268458 0.069574565 0.068824105 -0.046872165 -0.01884747 0.04406687 0.007193121
0.07499222 -0.05753592 -0.024128107 0.014784369 0.04521333 0.074911095 -0.042951386 -0.10728236
-0.019417949 0.054231092 -0.07830572 0.023367979 0.056649983 0.0761293 -0.023931019 0.056583375
-0.004137265 0.058946237 0.073614664 -0.019917574 0.0035243786 -0.04980515 -0.045419127 0.055365883
-0.075417146 0.011727895 0.028703716 0.055146012 -0.039480902 -0.026760006 -0.026601309 -0.020733777
-0.043460425 -0.015567291 -0.032893267 0.02763623 -0.003287293 0.12198217 0.07241471 0.017163334
0.07995246 -0.07929876 -0.045552287 0.022432314 0.051188905 -0.030181084 0.14304537 -0.04201094
0.013534421 0.019948687 0.022640336 0.11234856 -0.06940385 -0.035563216 -0.035146438 0.06036844
0.11293963 0.073270224 -0.13280235 -0.058793876 0.027449938 0.0050345687 -0.018921357 -0.036470886
0.030715317 -0.0671363 -0.05316329 0.039429758 0.018874638 -0.064779505 0.0071938415 -0.031684957
-0.025602747 0.066808105 0.042798202 0.03653243 0.0795849 -0.009587493 -0.06285591 -0.032396134
-0.043908454 0.065238535 -0.039005555 0.051670566 0.014692788 -0.0403548 -0.11252125 -0.056184206
-0.048274092 0.023855267 0.029612195 -0.028364597 0.03422468 -0.0053916494 -0.006289636 -0.03808415
0.05413875 -0.078849815 -0.07203607 0.050474048 0.047451306 0.12395 -0.0039403783 0.048167262
-0.076931424 -0.034808036 0.09575434 -0.009313467 0.060245886 -0.07523656 -0.013234393 -0.103824824
-0.024471415 -0.055488225 0.00301771 0.045660134 0.043340564 -0.055522908 0.051140178 0.02271814
0.073737904 -0.057308845 0.0030842873 -0.0028114582 -0.06630866 0.060174506 -0.00675568 0.101565994

sequential/dense_4/MatMul f4 [3, 1024]
00000000: cd42 08be 59d2 43bd 6771 133d 0351 05bd
00000010: 027f 5dbb e252 7e3d 9f30 163d 6b92 6d3d
00000020: 788e 9d3d a2b7 97bd 5946 78bd 2e19 613d
00000030: fb2c 8c3d c958 c83d 3597 9f3b 30f4 283c
00000040: c879 81bd 912c 91bc fd56 d43d 39e5 82bc
00000050: b357 ebbc c74c 2ebd 6787 c63d 1336 933d
00000060: ddcb dbbc bb46 c7bd 68e3 8dbd 24a4 7f3d
00000070: f0a3 a43d 3e89 973d 7345 ad3d 302a 7d3c
00000080: 70ca 56bd 3b00 edbc 1a4b 8a3b 8e85 1fbd
00000090: 53e0 b33d b5a1 013d cf66 49bd 0da6 48bd
000000a0: e529 ae3b 2064 1bbd 6685 01bd 774d b7bd
000000b0: 3f1b 863c 41aa 933c ff32 9b3b 1eb6 503c
000000c0: 8646 d0bc dba1 873d d933 21bd 48c2 b8bb
000000d0: 939e cdbb c084 12bd c4d6 fd3d ab98 2dbd
000000e0: 35ac 913d a2df 19bd 9088 9d3d 5861 d33d
000000f0: 2d86 083d 3410 20bd 3b05 a23b 3904 933a
00000100: 5989 7cbd 9552 393b 304a 023d 785a cebd
00000110: ee4f 76bd 2a88 be3c 2494 d8bc cb12 973c
00000120: e84d aabd 6490 afbd a0f0 83bb 2a45 7dbd
00000130: 78d4 aa3c 2244 983d 0c3d 483d d1e0 883d
00000140: b46f cabd 9207 1bbd 6ad5 643d 01b2 06bd
00000150: 2421 433c 23be 5d3d 23b2 22bd 03d4 6d3d
00000160: 61f0 6bbd 90d5 30bd 52db 9a3b d28f f53c
00000170: 58d0 8f3d 4a95 09bd df73 9e3d 65f9 1fbd
00000180: 0d52 5a3d 6b73 3d3d 2da1 a8bd fa55 9e3d
00000190: 24e9 883d 7171 d4bb ec2d 0fbd 4690 77bc
000001a0: 4b41 943d 07e8 d83c 8b51 903c 3d81 d93b
000001b0: 8fbd acbd c0d3 6bba 6482 c1bb 2019 05bd
000001c0: b973 a4bc eb07 75bc 4da0 fa3a f88e 24bd
000001d0: e906 98bc 0f38 063d 9090 79bd 98a6 e83b
000001e0: d75a f5bc 51fa 4dbd d840 933d 7da2 9bbd
000001f0: ae62 abbd c0b5 0ebd 9c0d ed3c 2990 eebc
00000200: 1370 24bd 5536 1d3d 3cb3 abbd 4feb 1a3b
00000210: ebbc 77bb a807 1b3d e9c7 63bd 2071 283d
00000220: c3e9 28bd 0248 2ebd ce41 10bd 12a5 623c
00000230: e198 eabd b454 9239 3419 7d3c 5724 be3d
00000240: c720 883d 498b 4b3d 90e4 f93c 58cc 023d
00000250: 96d6 4d3d 72e0 3dbd 40fd 9d3b c986 35bd
00000260: 24aa 023d f765 65bd 3294 553d 636f a33d
00000270: 4e7e 71bd b1f7 bd3c e3a7 6b3c 48a7 13bd
00000280: b827 59bd 582e ae3d bdf8 403d 152b 283d
00000290: ab41 45bd 5fe4 01bd 2c9a 433d 1b43 afbc
000002a0: 97d9 dfbc 801b 81bd a588 ffbb 068a 13bd
000002b0: edc3 8a3d 7a8d a8bd 158d 87bd d873 143c
000002c0: 7697 abbd fa3a 38bd 98dd 953d afaf 8bbd
000002d0: 0f04 dd3c ea25 a1bd 084d ac3c 7c4d 3e3d
000002e0: d838 95bd 2e08 07bd d92c 063d bf28 cdbd
000002f0: ae21 03be 906b fabc 4182 bf3d bded 01bc
00000300: 9528 9cbd 6a3b d63c 58b3 c2bd 00f7 2ebc
00000310: 3c2f 0fbd 21c3 2e3d 3174 d8bc 941c 353d
00000320: 7b8a 05bb 9f6b 9cbb 5ef9 c13d 38ef 7a3d
00000330: 386a c93b f3b2 ca3d 40d2 a33d ab67 8bbd
00000340: 0e55 cfbb fef7 f1bb e260 b3bd ea42 e83c
00000350: e772 993a 5d50 8f3c dcb8 5f3b 0d73 ee3c
00000360: a686 88bd b23f 05bd aa70 d63c 6488 713d
00000370: a876 ca3c 3b3c 423d 8792 4fbd 45b0 b33d
00000380: 6409 62bd 58b8 353c b022 82bb 207c e33c
00000390: 1ccf 8f3d b4dc 443d d8bd 803c d4bc fcbc
000003a0: 0c69 b33d 69e9 03be 2bde 3db9 ac07 1bbd
000003b0: f450 3d3d 6a88 e8bd 0a2f b53d 79a4 a63d
000003c0: 6052 863c 1aaa 8a3d 2967 c5bc 3fb2 a0bd
000003d0: a9b8 c4bc 1012 af3b 31ed 3e3d 4116 903d
000003e0: edf8 8ebb 2450 46bd 294a 553d a2e2 a63c
000003f0: e66f 98bc cb75 573d 6844 253d 1fe9 853d
-0.13306732 -0.047808025 0.03599682 -0.032547962 -0.0033797626 0.062090762 0.036667462 0.058000963
0.076931894 -0.07408072 -0.060613964 0.054955654 0.06844517 0.097825594 0.00487032 0.010312125
-0.06322056 -0.017721446 0.10368154 -0.015978443 -0.028728342 -0.04255369 0.09693795 0.07188048
-0.026830608 -0.09730288 -0.0692814 0.062412396 0.08039081 0.07399224 0.08460512 0.015451953
-0.052439153 -0.028930774 0.0042203786 -0.038945727 0.08783021 0.031648356 -0.04917031 -0.048986483
0.005315053 -0.037937284 -0.03162136 -0.08950322 0.016370414 0.01802552 0.004736304 0.012738733
-0.025424253 0.06622668 -0.039356086 -0.0056383945 -0.006275007 -0.03577113 0.12394479 -0.042381924
0.07112924 -0.03756679 0.07692063 0.10321301 0.033331085 -0.039077953 0.004944471 0.0011216468
-0.061654422 0.0028277982 0.031809032 -0.10075849 -0.06013482 0.023258287 -0.026437826 0.018441578
-0.08315641 -0.08572462 -0.0040264875 -0.061833538 0.020853266 0.0743487 0.048886344 0.06683505
-0.09884587 -0.037849016 0.05586759 -0.0328846 0.011909757 0.054136407 -0.039720666 0.05806352
-0.05760229 -0.04317242 0.004725852 0.029975805 0.0702216 -0.03358964 0.077369444 -0.0390562
0.053300906 0.04625265 -0.08233867 0.077312425 0.06685093 -0.00648325 -0.034955904 -0.015110081
0.07239016 0.026477827 0.017617008 0.006637721 -0.08434593 -0.0008996092 -0.0059054364 -0.032494664
-0.020074712 -0.014955501 0.001912126 -0.040175408 -0.018557983 0.032768305 -0.06092888 0.0070999376
-0.029950542 -0.05028755 0.07190102 -0.075993516 -0.08368431 -0.0348413 0.028937154 -0.029121475
-0.040145945 0.038381893 -0.083837956 0.002363879 -0.0037801813 0.0378491 -0.05561057 0.04112351
-0.041238558 -0.04254914 -0.035219006 0.013833301 -0.114549406 0.000279104 0.015447903 0.09284275
0.06646877 0.04969338 0.030504495 0.03193316 0.050253473 -0.046356626 0.0048214495 -0.044317994
0.03190054 -0.056005444 0.052143283 0.0798023 -0.058958344 0.023189398 0.014383289 -0.036048204
-0.053016394 0.08504933 0.047112215 0.04105671 -0.04815833 -0.031711932 0.04775445 -0.021394303
-0.027325435 -0.06304073 -0.0077982717 -0.0360203 0.06775651 -0.082301095 -0.06618706 0.009060822
-0.08378498 -0.04497812 0.07317656 -0.06820618 0.026979474 -0.0786856 0.021032825 0.046460614
-0.07286233 -0.032966785 0.032757614 -0.10017537 -0.12805817 -0.030568868 0.09351016 -0.007930216
-0.07624928 0.026151378 -0.09506863 -0.010679007 -0.034957156 0.04266656 -0.026422592 0.044216707
-0.002037673 -0.0047735716 0.09471391 0.061263293 0.0061466955 0.09897413 0.079990864 -0.068068825
-0.006327278 -0.0073842993 -0.08758713 0.02835222 0.0011707217 0.017494375 0.0034137284 0.029107595
-0.06666307 -0.032531448 0.02617677 0.058967963 0.024714783 0.04742072 -0.05067685 0.08773855
-0.055184737 0.011091314 -0.00397142 0.027769148 0.07021925 0.04806204 0.015715525 -0.030851759
0.087602705 -0.12882008 -0.00018107209 -0.037849113 0.04621978 -0.11354144 0.088468626 0.081368394
0.016396701 0.067707255 -0.024097042 -0.07846498 -0.024013834 0.0053427294 0.046612922 0.070354946
-0.0043631704 -0.04841627 0.052072678 0.020371739 -0.018608045 0.05260257 0.04034844 0.06538605

sequential/dense_1/MatMul;sequential/activation/Relu;sequential/dense_1/BiasAdd f4 [240]
00000000: 8351 d73d cec3 5fbb a63c c6bc 221d cf3c
00000010: 42f9 093d f32d 4fbd b9b0 1c3d d902 b83c
00000020: f463 3b3d 764d 003c 0ccc 593d 91b5 4cbc
00000030: 9770 56bc 6ac0 a13c 9956 cebd 06f0 4cbc
00000040: 3da5 81bc f489 bc3c 45be 28bc 14ac a2bc
00000050: 06ad 803d 32a4 bebc c353 b2bc d987 113b
00000060: 4617 2cbd c3d2 0dbb 35ad 38bc c7d3 cabb
00000070: 1df2 c6bb c78e cabb 10aa 48bc 9837 c2bc
00000080: c225 ae3d 0e49 b53a a1fe 53bc 151f 60bc
00000090: c9ee f8bc 71e9 c2bc 1425 a83c 5ccd 7f3d
000000a0: 5722 f8bc 0a7c 7c3d d705 8bbd 9504 af3c
000000b0: 2830 35bb d322 423d 490e 933c 6ecb 66bd
000000c0: e766 0bbc e3c7 79bc 3f11 1bbd eb6d 133d
000000d0: bbba cdba 3918 43bc 2115 dabc 4287 ebbc
000000e0: d16a cfbb 2b2e 433d 811b 0fbd 642a 9abc
000000f0: bcca d6bb 6061 1abb bef1 853d 6a65 38bd
00000100: 12cb 7cbc c689 7cbc 0586 b7bb 58f9 ecbc
00000110: 6f7d b23d e6b3 f2bc 0b9a 563d 9874 bebc
00000120: 86e1 af3d 0542 ac3a eeb2 c4ba 34bb 0cbd
00000130: 1f1f d23d 83d8 acbc 461c c5bc 7ad1 083c
00000140: 9a9c 60bc f449 d2bb f2f9 d4bc e99d 543d
00000150: 555a 9c3c 41d1 dbbb b49e 6e3d 060e 123d
00000160: c803 a2bc e9a5 1abd 130e d83d 09fd ccbc
00000170: d22d 2abc 81c4 16bb 8d95 87bc 42f3 c0bc
00000180: 20e2 ee3d 6d4a d4bd 7746 05bc a62b f33d
00000190: b6dd a43a 38ca 0b3d 5680 173c 8e1b 0cbd
000001a0: 72ed f7bb ee12 3dbc c03a 293d 92e6 8b3d
000001b0: 4780 443c 1b56 b33d 320b 503d f7ae 2dbc
000001c0: 7d65 083d 1892 09bc f240 893c c090 b33d
000001d0: 119c 40bc eceb be3c bb9a bebc 4a77 b3bc
000001e0: 82cd bf3b 3069 00bc affc 053b e72f d93c
000001f0: 1052 393d 086f 8abc c8ce 00bb 375b f6bb
00000200: 45d0 97bc ff26 06bc bafa 99bb e47b 06bd
00000210: 7b7f 80bc 8dd1 e0bb 501c 33bc 801a c5bc
00000220: e3e7 503b cb70 dcbc 9873 0f3a a1b0 6cbb
00000230: b476 9ebc 0700 f83b 635f 0abd 68ec 36bd
00000240: 26a2 253a a366 6ebb 9ce1 59bc 658e e9bc
00000250: 05b0 0dbd c8b0 0bbd f8ef 1e3d bb6e ae3d
00000260: b7bc 29bc 3ff1 06bb cfe4 223d de15 213c
00000270: 951a 48bd 8ef2 e5bd fd45 98bb e79a da3d
00000280: 58b1 e9bc 2234 d8bb a062 483d c1fc c9bc
00000290: 2326 b9bc f4a6 15be ee65 08bd 9684 033d
000002a0: 133b 193d c0e0 ba3b a8eb 77bb e3cb 863b
000002b0: 1ea5 aa3d d517 cdbc 5653 edbb fbed 8bbc
000002c0: 787d bbbb ef9c 90bc 682b a03b c0bd e33c
000002d0: 178b 68bc a8af 7bbc a48e 8cbd 707b 8fbd
000002e0: f2b3 093d 7c54 47bd 23bc 21bc 6d73 86bc
000002f0: 8251 0fbd d5f2 713d 2055 7abb 38e5 043c
00000300: 2a90 c5bb c85f 243d f5e0 723d e859 73bc
00000310: 7e69 4bbd f063 05bc e6db a7ba 2030 59bc
00000320: 0c9c 80b9 cde6 e4bb 3221 cb3c ae8b 203c
00000330: a68b 9dbc d601 a0bd fabe 56bb 7df2 0dbd
00000340: 7e7a 81bc 563b aabc dfcd afbc ec21 ad3d
00000350: 2db0 03bc 18a4 77bd df87 983b d798 7b3b
00000360: 0340 573b c972 a7bc 4537 ddbc 27c6 853d
00000370: 0903 083b 0e0b 09bb 1ffb 17bc 15a9 a9bd
00000380: bc88 56bb 22d5 4c3b 4ef2 b6bc 5a50 9f3d
00000390: f42e 0fbc a74e c1bb bb6d c9bc 6faa 9e3c
000003a0: 2470 a43d 9308 66bb db20 41bd 0456 2cbd
000003b0: be7d e2bc fedc 8e3b 1c2a f6bc cfa7 04b8
0.10513594 -0.0034143808 -0.024198841 0.025282446 0.033684976 -0.05058093 0.038254473 0.022462295
0.04574962 0.007830968 0.05317311 -0.012494461 -0.013088367 0.01974507 -0.10075111 -0.012508398
-0.015825862 0.023015 -0.01029927 -0.019857444 0.062830016 -0.023271654 -0.021768456 0.0022206216
-0.042014383 -0.0021640516 -0.0112717645 -0.0061897966 -0.0060713426 -0.006181571 -0.012247577 -0.02370815
0.085032955 0.0013830976 -0.012939126 -0.0136792855 -0.0303873 -0.023792954 0.020525493 0.062451705
-0.030289812 0.06164173 -0.06788223 0.02136449 -0.0027647112 0.047396492 0.017951148 -0.05634635
-0.008508421 -0.015245411 -0.037858244 0.035993498 -0.0015695909 -0.011907631 -0.026621403 -0.02875102
-0.006329872 0.04765145 -0.03493834 -0.018819042 -0.0065549295 -0.0023556575 0.06540249 -0.04501859
-0.015429275 -0.015413707 -0.005600693 -0.02892749 0.08715331 -0.029626798 0.052393 -0.023248956
0.08587937 0.0013142234 -0.0015006938 -0.03435822 0.10259842 -0.021099335 -0.024061333 0.008350724
-0.013709212 -0.0064175073 -0.02599809 0.051908407 0.019086042 -0.0067082946 0.05825682 0.035657905
-0.019777194 -0.03775588 0.105495594 -0.025023 -0.010386901 -0.002300531 -0.016550804 -0.023553494
0.11664224 -0.10365758 -0.008134476 0.1187356 0.0012578282 0.034128398 0.009246906 -0.034205966
-0.0075661475 -0.011540158 0.041315794 0.06831087 0.011993474 0.08756658 0.050791927 -0.010600797
0.03329991 -0.008396648 0.016754601 0.08767843 -0.011755959 0.023305856 -0.02326714 -0.021907467
0.005853356 -0.007837579 0.00204448 0.0265121 0.045244277 -0.016898647 -0.0019654501 -0.007518198
-0.018531928 -0.008188008 -0.0046990784 -0.032832995 -0.015685787 -0.006860918 -0.010932043 -0.024060488
0.0031876497 -0.026909253 0.0005472242 -0.0036116021 -0.019343711 0.0075683626 -0.033782374 -0.04465905
0.00063184125 -0.0036377094 -0.013298418 -0.028510282 -0.034591693 -0.03410414 0.03880307 0.08517214
-0.0103599345 -0.0020590571 0.03976899 0.009831874 -0.048853476 -0.11227904 -0.004647015 0.106740765
-0.028526947 -0.0065980116 0.04892218 -0.024656655 -0.022601193 -0.14614469 -0.033300333 0.032108866
0.037409853 0.005703062 -0.003782967 0.0041136607 0.08332275 -0.025035778 -0.0072426004 -0.017081251
-0.005721744 -0.017652957 0.004887987 0.02780044 -0.014193318 -0.015361704 -0.06863144 -0.07005966
0.033618875 -0.048664555 -0.009871515 -0.016412461 -0.03498984 0.059069473 -0.003819771 0.008111291
-0.0060291486 0.040130407 0.059296567 -0.014852978 -0.049661152 -0.008141503 -0.0012806624 -0.013256103
-0.00024530326 -0.0069855214 0.024796102 0.009798927 -0.019231629 -0.0781285 -0.003276764 -0.034655083
-0.01580548 -0.020780247 -0.021460472 0.08453736 -0.008037609 -0.060459226 0.004654869 0.003839066
0.003284455 -0.020440476 -0.027003894 0.06531935 0.0020753762 -0.002091113 -0.0092761805 -0.08284203
-0.0032735309 0.0031254967 -0.022332337 0.07778998 -0.008739222 -0.0058992687 -0.024588456 0.019368378
0.080292016 -0.0035100325 -0.047150474 -0.04207422 -0.02764785 0.0043598404 -0.030049376 -3.1627536e-05

sequential/dense_4/MatMul;sequential/dense_4/BiasAdd f4 [3]
00000000: dace f03c b71c b33d 06a8 083f
0.02939551 0.08745711 0.53381383
