models/model_forward_v2.tflite (tflite, 163240 bytes, 7 tensors)

sequential_2/dense_12/BiasAdd/ReadVariableOp f4 [30]
0	0xbe3a6f5d	-0.18206544
1	0xbc4384c5	-0.01193351
2	0xbd39932b	-0.045306366
3	0xbd905cc6	-0.07048945
4	0xbd14958e	-0.03627544
5	0x3cafcb78	0.021459326
6	0xbc71417d	-0.014725086
7	0xbb54a6a0	-0.003244795
8	0xbd23a7c2	-0.03995491
9	0xbdba747c	-0.09104249
10	0xbcdeb06b	-0.027183732
11	0xbdac12e7	-0.08402043
12	0xbd90fa55	-0.07078997
13	0xbd86608e	-0.06561385
14	0xbd6c2aa3	-0.05765785
15	0x3d8997a4	0.06718376
16	0xbdb75f43	-0.089537166
17	0xbda844ca	-0.082162455
18	0xbd2b1e33	-0.041776847
19	0xbd51c1e8	-0.051210314
20	0xbd54c595	-0.05194624
21	0xbdf94605	-0.12171558
22	0x3d5514e7	0.052021887
23	0x3df5dcc0	0.12004995
24	0xbe961a84	-0.29317105
25	0xbbe7a780	-0.007069528
26	0x3e206ed7	0.15667282
27	0xbd09913e	-0.03358578
28	0xbd64cee3	-0.055861365
29	0xbdd19248	-0.10232979

sequential_2/dense_10/MatMul f4 [4, 4]
0	0xbf163368	-0.5867219
1	0xbf1289cc	-0.5724151
2	0xbc32db48	-0.010916539
3	0x3f9f0684	1.2423863
4	0xbf44af39	-0.7682987
5	0x3ec5ff76	0.38671464
6	0x3f37c583	0.71785754
7	0x3f051e2a	0.5199915
8	0xbef96825	-0.48712268
9	0xbf047270	-0.5173712
10	0x3f4563e5	0.7710555
11	0xbf988a46	-1.1917198
12	0x3f29edec	0.66378665
13	0xbf07fc40	-0.5311928
14	0x3f31c41e	0.69439876
15	0x3f01372d	0.50474817

sequential_2/dense_11/MatMul f4 [240, 4]
0	0xbd038b6f	-0.032115396
1	0x3cc8844e	0.02447715
2	0x3d92e859	0.07173223
3	0x3c00404b	0.007827829
4	0x3c2340d1	0.009964184
5	0xbd704a1f	-0.058664437
6	0x3d0e52c5	0.034746904
7	0xbda5a5c8	-0.08088261
8	0xbd1e44ec	-0.038639948
9	0xbf055c97	-0.52094406
10	0xbea8b5b4	-0.32951128
11	0xbd9a4648	-0.07532936
12	0x3e858091	0.2607465
13	0x3e45166a	0.19246832
14	0xbecb6527	-0.3972561
15	0x3e6a8352	0.22901657
16	0x3d89ebfc	0.067344636
17	0xbdc87490	-0.097878575
18	0x3dd0e7f2	0.1020049
19	0x3c903c9d	0.017607028
20	0xbe54d094	-0.20782691
21	0xbe251100	-0.16119766
22	0x3f037506	0.5135044
23	0xbec8434d	-0.39113846
24	0x3d3a9d74	0.045560315
25	0xbcff3420	-0.031152785
26	0xbe8e4ae6	-0.27791518
27	0xbd05035e	-0.032473914
28	0xba80d3fe	-0.0009828804
29	0xbdc208aa	-0.09474309
30	0x3d5ca81a	0.05387125
31	0xbdf85495	-0.12125508
32	0x3efc5605	0.49284378
33	0x3e85dc82	0.26144797
34	0x3eb62ec6	0.3558256
35	0xbf2a0c56	-0.66425073
36	0xbe10f7cf	-0.14157031
37	0x3e01f482	0.12690929
38	0xbdd8594b	-0.10563906
39	0x3ea887d8	0.3291614
40	0x3e4171d6	0.18891081
41	0x3c7b2d3d	0.01533061
42	0x3e1904ce	0.14943239
43	0x3ce0029f	0.027345
44	0x3c731e47	0.014838762
45	0xbeb2e704	-0.34941876
46	0x3e96d84b	0.29461893
47	0xbe44f91d	-0.19235654
48	0xbc5a4496	-0.013322016
49	0x3d033bd6	0.032039486
50	0x3cb8a03b	0.022537341
51	0x3cc95d6e	0.024580684
52	0x3bae70f5	0.005323524
53	0xbe17a79a	-0.14810029
54	0xbdb47b45	-0.08812574
55	0xbd6c85d6	-0.057744823
56	0xbee00ee5	-0.43761364
57	0xbeae2e2d	-0.34019604
58	0x3e96fe12	0.29490715
59	0xbd6d2b83	-0.057902824
60	0x3e54cca7	0.20781194
61	0xbe42ae92	-0.19011906
62	0x3c468bed	0.012118322
63	0xbe699d01	-0.22813798
64	0x3e561966	0.20908126
65	0xbe018195	-0.12647088
66	0x3e5a22e0	0.21302366
67	0x3c8bb9fc	0.017056458
68	0xbbb8a072	-0.005634361
69	0xbde7d22e	-0.113193855
70	0x3eb246bf	0.348196
71	0xbe5b6c40	-0.21428013
72	0x3cdbb39c	0.026819043
73	0xbdc70c82	-0.097191826
74	0x3e545313	0.20734815
75	0xbd45dc0f	-0.048305567
76	0x3d6d630f	0.057955798
77	0xbd70ef7f	-0.05882215
78	0x3e0330aa	0.12811533
79	0x3da7fbc8	0.0820232
80	0x3ddcc882	0.10780431
81	0xbd888873	-0.066666506
82	0x3cd0e4e6	0.025499772
83	0xbe108416	-0.14112887
84	0xbd2f1dbe	-0.042752974
85	0x3e7a8e8c	0.2446844
86	0xbd9dcea6	-0.07705431
87	0xbe19d96c	-0.15024346
88	0x3d2c4366	0.042056464
89	0xbc9b4669	-0.018954473
90	0x3cd96325	0.026536534
91	0xbd3e59c6	-0.046472333
92	0x3e9ce35a	0.30642205
93	0x3dc0d968	0.09416467
94	0x3d3f535f	0.04671037
95	0xbe0f3d6b	-0.13988273
96	0xbe405db4	-0.18785745
97	0x3eaa16b1	0.33220437
98	0x3eaa3c22	0.33249003
99	0xbce941fe	-0.02847385
100	0xbe26bfe2	-0.16284135
101	0xbd6586aa	-0.05603663
102	0xbeb8d440	-0.36099434
103	0x3efa329b	0.48866734
104	0xbe2e016a	-0.16992727
105	0x3e501c20	0.20323229
106	0xbe18c3d5	-0.14918454
107	0xbe2ed03b	-0.17071621
108	0xbcd6d5b5	-0.02622495
109	0x3cd289ac	0.025700413
110	0xbc53fe89	-0.012939104
111	0xbd3c239f	-0.04593241
112	0x3b9c95c3	0.004778595
113	0x3dc3cd31	0.095606215
114	0x3e834e09	0.25645474
115	0x3d3a1370	0.045428693
116	0xbcb583b6	-0.022157531
117	0xbd978ca5	-0.07399873
118	0x3db4587e	0.08805941
119	0xbcfc1169	-0.03077002
120	0x3e02d405	0.12776192
121	0xbe294057	-0.1652845
122	0xbd94bf0c	-0.07263002
123	0xbf426fb7	-0.75951713
124	0xbede3145	-0.43396965
125	0xbe999268	-0.29994512
126	0x3f10f8e0	0.56629753
127	0xbea6bd89	-0.3256648
128	0x3c2cc3f4	0.010544766
129	0x3d41567a	0.04720161
130	0x3d6f466c	0.05841677
131	0x3e823651	0.25432065
132	0x3f15f77f	0.58580774
133	0x3ec63e50	0.38719416
134	0xbe693abb	-0.2277631
135	0xbe257a5d	-0.16159959
136	0xbe0fe8dc	-0.14053673
137	0xbe0d1b43	-0.13779931
138	0xbe82c0f7	-0.25537845
139	0xbe9346db	-0.28764996
140	0x3bddd6d2	0.0067699933
141	0xbd08dbeb	-0.033412855
142	0x3d0958c8	0.033531934
143	0x3b0f02ca	0.002182173
144	0x3c7563ad	0.014977378
145	0xbbae7518	-0.0053240173
146	0x3cddbdcf	0.027068047
147	0xbda857f3	-0.082199
148	0xbdba5ae1	-0.09099365
149	0x3d2aaf02	0.041670807
150	0xbcbd349a	-0.023096371
151	0xbe5e1efa	-0.21691504
152	0x3e26230e	0.1622431
153	0x3d0e229a	0.034700967
154	0x3decb534	0.11557999
155	0xbdd705a3	-0.10499122
156	0x3f0d93a4	0.55303407
157	0x3e9d1d7a	0.3068655
158	0x3dd3be97	0.103390865
159	0xbeec29af	-0.46125552
160	0xbdc2d3ff	-0.09513091
161	0xbd73d9ce	-0.059533887
162	0x3e476c8b	0.19475
163	0x3d188eee	0.037245683
164	0x3eca52f6	0.3951642
165	0xbe93be0b	-0.2885593
166	0x3ed004d0	0.40628672
167	0xbe2bbcd3	-0.1677125
168	0xbc94f901	-0.01818514
169	0xbe202dd2	-0.15642479
170	0x3e7b14c5	0.24519642
171	0xbd4b08fe	-0.049569122
172	0x3d94df19	0.07269115
173	0xbe203802	-0.15646365
174	0x3df6891f	0.120378725
175	0x3d837f81	0.06420804
176	0xbecaa49e	-0.39578718
177	0xbcbe4259	-0.023224996
178	0x3f10919a	0.5647217
179	0xbed8e3aa	-0.42361194
180	0xbd8a4f4f	-0.06753408
181	0xbda30fb7	-0.07961982
182	0x3ddf0e7c	0.108914346
183	0xbd7d479c	-0.06183587
184	0x3eb77c00	0.35836792
185	0x3e272b69	0.16325153
186	0xbe34bed3	-0.17650919
187	0xbda6b00b	-0.08139046
188	0xbe475582	-0.19466212
189	0xbdc77984	-0.09739974
190	0xbe90df69	-0.28295448
191	0xbea77376	-0.32705277
192	0x3ba7f9f4	0.0051262323
193	0x3e625808	0.22103894
194	0xbdade555	-0.08491007
195	0x3cbc1e6f	0.02296373
196	0xbdff5b83	-0.12468626
197	0x3df86f82	0.121306434
198	0x3e761a36	0.24033436
199	0x3e389f43	0.18029504
200	0x3c6a65ed	0.014306528
201	0x3cee24e6	0.029070329
202	0xbd94e36d	-0.072699405
203	0xbd2d1021	-0.04225171
204	0x3d575077	0.05256697
205	0xbd6e8dff	-0.058240887
206	0x3eaa08d1	0.3320985
207	0xbe23ef8a	-0.16009346
208	0x3e8ec6ae	0.27885956
209	0xbeccdd2c	-0.4001249
210	0xbe784ff9	-0.24249257
211	0xbe16fb2a	-0.14744249
212	0xbd84da28	-0.064869225
213	0x3e55b23a	0.2086877
214	0x3dec6495	0.11542622
215	0x3e1eae14	0.15496093
216	0x3f03596f	0.5130834
217	0xbe336231	-0.17517926
218	0x3e8de689	0.27714947
219	0xbf15de8a	-0.5854269
220	0xbe3e2d8f	-0.18572067
221	0x3e26b1a5	0.16278704
222	0xbe592ad9	-0.21207751
223	0xbe590651	-0.21193816
224	0xbde5e5be	-0.112254605
225	0xbe434748	-0.1907016
226	0xbe4b1957	-0.19833885
227	0x3e5a3f2d	0.21313162
228	0x3e0050d3	0.12530832
229	0x3b23292c	0.0024896367
230	0x3e2412e4	0.16022831
231	0x3e533ae5	0.20627935
232	0xbee59aa1	-0.44844535
233	0xbe9c642a	-0.3054517
234	0x3dcdd94a	0.1005121
235	0xbde7e347	-0.113226466
236	0x3b434561	0.0029795992
237	0x3e91b70f	0.28459975
238	0x3e223465	0.158403
239	0xbc41ced6	-0.011829099
240	0xbe00e9a7	-0.12589131
241	0x3ca19988	0.01972653
242	0x3ed38116	0.41309422
243	0xbde754f5	-0.11295501
244	0x3df5315a	0.11972304
245	0xbf1f651f	-0.62263674
246	0xbe442765	-0.19155653
247	0xbd8adb18	-0.0678007
248	0x3c447ed2	0.011993127
249	0x3d0d6f9b	0.034530263
250	0x3da8513c	0.08218619
251	0x3cf7dc63	0.030256456
252	0x3e7e2130	0.24817348
253	0x3e403ffd	0.1877441
254	0xbdab5fe9	-0.08367903
255	0xbd082a6d	-0.033243585

sequential_2/dense_12/MatMul f4 [30, 240]
0	0x3c90610b	0.017624399
1	0x3ddbe137	0.10736316
2	0xbd109e6e	-0.03530734
3	0xbd0e7130	-0.034775913
4	0x3e0d24a7	0.13783513
5	0x3e0d6dbb	0.1381139
6	0xbd466aa4	-0.048441544
7	0x3df920c0	0.1216445
8	0x3d7e5f03	0.06210233
9	0xbd53cf14	-0.051711157
10	0x3c38f424	0.011288676
11	0x3def04a0	0.11670804
12	0xbdc9359d	-0.09824679
13	0x3d6acd89	0.05732492
14	0xbd08024e	-0.033205323
15	0xbde828c5	-0.11335901
16	0x3df5c3a9	0.1200021
17	0xbd7ab303	-0.061205875
18	0xbdb1b7a9	-0.086776085
19	0x3b74c08f	0.003734622
20	0x3d47a548	0.04874161
21	0xbdcc9fc7	-0.099914126
22	0x3df3d633	0.1190609
23	0xbdcaa409	-0.098945685
24	0xbdc59f86	-0.09649567
25	0xbda3ed35	-0.08004228
26	0xba6febbf	-0.00091522554
27	0xbe4c47ac	-0.19949216
28	0xbc843210	-0.016137153
29	0x3d41eb9f	0.047343846
30	0xbc1e7cf5	-0.009673347
31	0xbc12a958	-0.0089515075
32	0xbd3c5cef	-0.045987066
33	0xbd61f673	-0.055166673
34	0xbd109a7a	-0.03530357
35	0xbcecf7b8	-0.028926715
36	0x3c98b7ea	0.018642385
37	0xbd88e664	-0.066845685
38	0x3e1378c5	0.14401539
39	0xbe7f6b15	-0.24943192
40	0x3e0f9f00	0.14025497
41	0xbda975dd	-0.08274434
42	0x3dc53cef	0.09630763
43	0xbe0b3af9	-0.13596715
44	0x3d9cfe4b	0.0766569
45	0xbe04369b	-0.12911455
46	0x3d7d4e30	0.061842144
47	0x3d34c0db	0.044129234
48	0xbbfb153c	-0.0076624434
49	0x3d519e0a	0.05117611
50	0xbe7e1d8a	-0.24815956
51	0xbe167b5f	-0.146955
52	0xbb9a4938	-0.0047084354
53	0xbe3fd9a5	-0.18735369
54	0xbcaa8a66	-0.020817947
55	0x3d61b33c	0.05510257
56	0xbe133dd3	-0.14379053
57	0x3cacb636	0.021082979
58	0x3de1b00d	0.11019907
59	0x3d81963a	0.063274816
60	0xbcf242e7	-0.029572917
61	0x3c07d554	0.0082906075
62	0xbd44c134	-0.048035815
63	0xbeac1989	-0.33613232
64	0xbe23476a	-0.15945211
65	0x3e0ab306	0.13544855
66	0xbe159450	-0.14607358
67	0xbde54464	-0.11194685
68	0x3d3d3bab	0.046199482
69	0x3daee18b	0.08539113
70	0x3dc8a271	0.09796608
71	0xbe3f4eee	-0.18682453
72	0xbe1d47bb	-0.15359394
73	0x3dc62ccf	0.09676515
74	0x3c1a05b1	0.009400771
75	0xbd3308ae	-0.04370945
76	0xbe037bf2	-0.1284025
77	0xbe4eece1	-0.2020755
78	0x3c817f47	0.01580776
79	0xbcc014a3	-0.02344734
80	0xbd6668e6	-0.056252383
81	0xbde25552	-0.1105143
82	0xbd83583f	-0.06413316
83	0x3dc8ae08	0.09798819
84	0xbb826a36	-0.0039799465
85	0x3dd882bf	0.10571813
86	0x3ce0e8db	0.027454784
87	0xbe385a9c	-0.18003315
88	0xbe273edb	-0.16332571
89	0x3d8c44f2	0.06849088
90	0x3df5f766	0.12010078
91	0xbd3fc3b6	-0.046817504
92	0xbd84b361	-0.06479526
93	0xbd9b3bfc	-0.075798005
94	0x3e51590f	0.2044413
95	0x3df580fe	0.11987494
96	0xbe19304d	-0.14959832
97	0x3d83207d	0.06402681
98	0xbc30bdac	-0.010787409
99	0x3d972856	0.0738074
100	0x3c17f7f5	0.009275426
101	0xbe8234a9	-0.25430802
102	0xbe09c594	-0.13454276
103	0xbc02f59e	-0.00799313
104	0x3dca9e5e	0.098934874
105	0xbc0b3917	-0.008497498
106	0x3d47a163	0.048737895
107	0x3cd757ee	0.026287045
108	0x3e0afeaf	0.13573717
109	0x3dd94f96	0.10610883
110	0xbd8860b9	-0.066590734
111	0x3b82f8dc	0.0039969515
112	0xbd99e259	-0.075138755
113	0xbde2c1ff	-0.11072158
114	0x3c8918a8	0.01673539
115	0xbdcaeb0d	-0.09908114
116	0xbc73d967	-0.014883376
117	0x3d0722bc	0.03299211
118	0x3dd33010	0.103119016
119	0xbe122ba3	-0.14274459
120	0x3d82c335	0.06384889
121	0x3d1e1c60	0.03860128
122	0xbe0d2d4e	-0.13786814
123	0x3cbc727e	0.023003813
124	0xbe0c17db	-0.13680975
125	0xbd98b63d	-0.07456634
126	0xbd9718be	-0.07377766
127	0x3d7d47be	0.061835997
128	0xbe0b946b	-0.13630836
129	0x3b286dd2	0.0025700224
130	0xbe31f219	-0.17377509
131	0xbe07ea27	-0.13272916
132	0xbded7fcc	-0.11596641
133	0x3da66dc8	0.08126408
134	0xbdb24960	-0.087054014
135	0xbe916899	-0.28400114
136	0x3dfcdef0	0.123472095
137	0xbd49eb3e	-0.04929661
138	0x3d7b7cd4	0.061398342
139	0xbe338c7e	-0.17534062
140	0xbdbde330	-0.09271848
141	0x3cecd893	0.028911864
142	0x3db11b5f	0.08647799
143	0x3d64b41c	0.05583583
144	0xbe18f0a6	-0.1493555
145	0x3ddc18bc	0.10746905
146	0xbdb38069	-0.08764727
147	0x3e04891b	0.12942927
148	0x3e2f07ad	0.17092772
149	0x3c46b723	0.012128624
150	0x3daec375	0.08533374
151	0xbe08cd7b	-0.13359635
152	0x3cdd5183	0.027016407
153	0xbd56d43d	-0.0524485
154	0xbe0aa239	-0.13538446
155	0x3daff3d1	0.08591426
156	0xbcf71189	-0.030159729
157	0xbc33fa91	-0.010985033
158	0x3dc33b5a	0.09532805
159	0x3ccd2cb8	0.025045738
160	0x3d9b4e04	0.0758324
161	0xbd2c983d	-0.042137373
162	0xbd219700	-0.039450645
163	0x3da96ef3	0.08273115
164	0xbdad138c	-0.08450994
165	0xbd5272e5	-0.051379103
166	0xbdb8b3ca	-0.09018667
167	0xbd816f44	-0.0632005
168	0xbd9fa321	-0.07794786
169	0x3d544c67	0.051830675
170	0xbbc56a73	-0.0060246526
171	0x3de28544	0.11060575
172	0x3e07b199	0.13251342
173	0xbcee1a5e	-0.029065307
174	0x3d332252	0.043733902
175	0x3e0707e9	0.13186611
176	0xbdd1e6e5	-0.10249118
177	0xbe279fc8	-0.16369545
178	0x3beb4532	0.0071798796
179	0x3e0f57df	0.13998364
180	0x3c9a1d8e	0.01881292
181	0x3d06258f	0.032750662
182	0xbdcd662a	-0.10029252
183	0xbc8ea3e0	-0.017412126
184	0xbd607431	-0.05479831
185	0x3b4a0f73	0.0030831962
186	0xbda47797	-0.080306225
187	0x3bff9f40	0.0078009665
188	0x3d74e590	0.05978924
189	0x3d470fc1	0.04859901
190	0xbe117a31	-0.14206769
191	0xbcac1b5b	-0.021009138
192	0x3dd0f14d	0.102022745
193	0x3e0bc504	0.13649374
194	0xbe029590	-0.12752366
195	0xbe045aff	-0.12925337
196	0xbd0b5bb6	-0.03402301
197	0xbcb6d3fc	-0.022317879
198	0xbbb40917	-0.0054942477
199	0xbe507175	-0.2035578
200	0x3da64cc8	0.081201136
201	0xbde8c972	-0.11366548
202	0x3dbf5db6	0.09344046
203	0x3d131d7b	0.035916787
204	0xbe40c8ff	-0.18826674
205	0x3c97fc15	0.01855282
206	0x3cc5f7da	0.024166036
207	0x3ce91500	0.028452396
208	0x3d9f5309	0.077795096
209	0xbe3d5c7d	-0.18492313
210	0x3df52b12	0.11971106
211	0xbc985532	-0.018595312
212	0x3d0d2d48	0.03446701
213	0xbca49e3f	-0.020094989
214	0xbd3722b0	-0.044710815
215	0x3d9ba8bc	0.07600543
216	0x3e0a389f	0.13498162
217	0xbdee66a3	-0.1164067
218	0xbdfd2a19	-0.12361545
219	0xbe0abfe3	-0.13549761
220	0x3dc6097d	0.096697785
221	0xbe877e9b	-0.2646378
222	0xbc880741	-0.016605021
223	0xbdb7484b	-0.08949336
224	0x3d7f1557	0.06227621
225	0x3b37b491	0.002803121
226	0xbe1ac543	-0.15114312
227	0xbe193e7e	-0.14965245
228	0xbbcfc278	-0.006340321
229	0xbdb22cb3	-0.08699932
230	0x3d832a6d	0.064045765
231	0x3df89295	0.12137333
232	0x3df2245a	0.1182334
233	0x3cfe34ef	0.0310311
234	0x3dccd493	0.10001483
235	0x3c4e48b6	0.012590578
236	0x3e347ae4	0.17625004
237	0xbd373bdc	-0.04473482
238	0x3d079856	0.033104263
239	0x3ce630b7	0.0280994
240	0x3d824fe9	0.06362898
241	0xbcc80c5a	-0.024419952
242	0xbd3c2627	-0.045934822
243	0x3d329a6b	0.043604296
244	0x3e0a0cc9	0.1348144
245	0xbc652e32	-0.013988065
246	0xbd274a02	-0.040842064
247	0xbdb18474	-0.086678416
248	0xbe094291	-0.134043
249	0x3d8e4fc8	0.06948811
250	0x3db040cd	0.0860611
251	0xbd801e30	-0.06255758
252	0x3ce8e784	0.028430708
253	0x3df349d4	0.11879316
254	0x3dc2925a	0.095005706
255	0xbe1a369c	-0.15059894

sequential_2/dense_13/MatMul f4 [1024, 30]
0	0x3cf047fb	0.029331198
1	0x3ba03961	0.0048896526
2	0x3d2a1ad8	0.041529506
3	0x3b21cdbe	0.0024689282
4	0xb947f8b7	-0.00019070772
5	0x3d791699	0.060812566
6	0xbc2c8eb6	-0.010532072
7	0xbb438e03	-0.0029839284
8	0xbd9432a9	-0.07236225
9	0x3c47f5e6	0.012204623
10	0x3ae4899a	0.0017436028
11	0xbcdc3ae6	-0.026883554
12	0x3cdb82a0	0.026795685
13	0xbd948d59	-0.072535224
14	0x3c9a59fa	0.018841732
15	0x37df509f	2.6621214e-05
16	0xbd08bf9a	-0.03338585
17	0xbd307568	-0.043080717
18	0xbd008af0	-0.0313825
19	0x37130418	8.762836e-06
20	0x38e45fe2	0.00010889747
21	0xbceb343e	-0.028711434
22	0x3a0e350e	0.0005424776
23	0xb9a09e25	-0.00030635405
24	0x3ba77393	0.005110213
25	0x3d88449c	0.06653711
26	0x39e0b93d	0.00042862623
27	0x39a60190	0.00031663151
28	0xb88c6cbe	-6.695975e-05
29	0x3d367cfb	0.044552784
30	0x3d7f6a9a	0.062357523
31	0xbd6baed7	-0.057539787
32	0xbcc49d5d	-0.024000818
33	0x3d7660c8	0.06015089
34	0x3a0952ef	0.00052384933
35	0x3d53b832	0.051689334
36	0xbd84adfa	-0.06478496
37	0x3ca990fd	0.020699019
38	0x3cc50e35	0.024054626
39	0xbd6b191a	-0.057396986
40	0x3d490bf6	0.049083672
41	0x3a2aff1a	0.00065229984
42	0xbd83a739	-0.064283796
43	0xbc7d6797	-0.015466592
44	0xbd1af8f0	-0.03783506
45	0x39b49f1d	0.00034450824
46	0x3c604c52	0.013690071
47	0xbc94c5cd	-0.018160725
48	0xbc9da3ae	-0.019243088
49	0x3a1b5172	0.0005924917
50	0xb9a8592d	-0.00032109898
51	0x3d03ce00	0.03217888
52	0x390880cc	0.00013017951
53	0x39e1d154	0.00043071306
54	0xbaf8ec00	-0.0018991232
55	0x3cef2a9b	0.02919512
56	0xb95319af	-0.00020132096
57	0xba1f4ff3	-0.0006077282
58	0x3a27cbbe	0.00064009044
59	0x3d99a0d3	0.07501378
60	0x3b8eb51b	0.0043550855
61	0xbd6507a4	-0.05591549
62	0xbc9f7505	-0.019464979
63	0xbd8d7bff	-0.06908416
64	0xb9e39445	-0.00043407283
65	0xbd248e78	-0.04017493
66	0x3cecf69a	0.028926183
67	0x3ba57f28	0.0050505586
68	0x3cfc5a22	0.030804697
69	0x3d7a9ad3	0.061182808
70	0x3d1809d1	0.037118737
71	0x3d956100	0.07293892
72	0x3d89367e	0.06699847
73	0xbc8bedcb	-0.017081162
74	0xbc5cc441	-0.013474525
75	0xb98ca2f8	-0.00026824302
76	0xbae51bc6	-0.0017479591
77	0xbd044a60	-0.032297492
78	0x3c8ccbe9	0.017187076
79	0x3934a91b	0.00017229134
80	0x3871fa16	5.769179e-05
81	0x3cb3bdb6	0.021941047
82	0xb93009d0	-0.00016788323
83	0xb9e01a7e	-0.00042744348
84	0xbb28ff78	-0.0025787037
85	0xbb813b96	-0.003943871
86	0x390eca8f	0.00013617634
87	0xba3cdeb0	-0.0007204814
88	0xb9548193	-0.00020266166
89	0xbc4d397d	-0.012525913
90	0x3d25f731	0.040518943
91	0x3d15bc95	0.0365568
92	0x3c99b0a3	0.018760985
93	0xbc455a21	-0.012045414
94	0xb99ada01	-0.00029535595
95	0x3d802694	0.06257358
96	0xbc8f57a0	-0.017497838
97	0xbcbf411b	-0.023346474
98	0x3bbce7ba	0.0057649286
99	0x3d846d8e	0.064662084
100	0xbce30d48	-0.027716294
101	0xbb970ad2	-0.004609444
102	0xbd92b661	-0.07163692
103	0x3d5d1962	0.053979285
104	0xbd978179	-0.07397742
105	0x399b15d4	0.00029580167
106	0xbb67289a	-0.0035272003
107	0x3d31e89d	0.043434728
108	0x3d4660ea	0.04843227
109	0x38dabbdd	0.00010430042
110	0xb93bcdd5	-0.00017910388
111	0xbd681b9f	-0.056666967
112	0xb9b40bbd	-0.0003434102
113	0xb89f7ea7	-7.605302e-05
114	0xbba9e307	-0.0051845345
115	0x3cc30ac8	0.023808852
116	0xb997bb5e	-0.00028940564
117	0x38d4f90e	0.00010155338
118	0x3a4df425	0.000785651
119	0x3bf709f8	0.00753903
120	0xbc9fe58d	-0.019518638
121	0x3d3f1521	0.04665101
122	0x3d9bfa41	0.076160915
123	0xbcccfbb7	-0.02502237
124	0xb968027e	-0.00022126173
125	0xbccfd33b	-0.025369277
126	0x3bcdb3b3	0.0062775253
127	0x3c4509a7	0.012026227
128	0x3c15ae4c	0.009135794
129	0xbce10df0	-0.027472466
130	0x3d17eac0	0.03708911
131	0xbac27f1c	-0.0014838907
132	0x3d6661b1	0.05624551
133	0x3b86fdc4	0.0041196067
134	0x3d45929a	0.048235513
135	0x3803f19e	3.1457857e-05
136	0xbcaa22ad	-0.020768488
137	0x3cdbf657	0.026850862
138	0xbd2e0fbf	-0.042495485
139	0x3873c16b	5.811585e-05
140	0x390c4648	0.00013377622
141	0x3ced2e35	0.028952697
142	0x389136ce	6.924347e-05
143	0xb89f87b3	-7.606987e-05
144	0xbba5af0f	-0.005056269
145	0xbbc19d4c	-0.005908644
146	0xb6042a92	-1.9694312e-06
147	0xb993fc59	-0.0002822604
148	0xb804f715	-3.1701366e-05
149	0xbcf50b78	-0.029912695
150	0xbcbba608	-0.022906318
151	0xbd30e7e0	-0.043189883
152	0x3d97c0ba	0.074098065
153	0xbd8d91ec	-0.06912598
154	0x39f5e9d9	0.00046904272
155	0x3bbbae7e	0.005727588
156	0x3a5d5a37	0.0008443924
157	0x3d3a9356	0.045550667
158	0x3b382969	0.0028100854
159	0xbc3661ff	-0.0111317625
160	0xbd199312	-0.037493773
161	0xbd877ee4	-0.06615999
162	0x3d93585a	0.07194586
163	0x3d66d997	0.056359854
164	0x3cbce65d	0.023059065
165	0xb91eec3d	-0.0001515606
166	0x3d90b912	0.07066549
167	0xbd2fcb2c	-0.04291837
168	0x3cfebcaa	0.031095821
169	0x3a3d8753	0.0007229943
170	0xb98358b0	-0.00025052344
171	0xbd97144d	-0.07376919
172	0xb924057a	-0.00015642299
173	0xb9cfbdc8	-0.00039623515
174	0xbac88b74	-0.0015300349
175	0xbd3d2b11	-0.04618365
176	0x38c29267	9.2779104e-05
177	0xbaabcf59	-0.0013108059
178	0xb99f61fa	-0.00030399841
179	0x3d50e1c6	0.050996564
180	0xbcc35ef7	-0.023848994
181	0x3d37630a	0.044772185
182	0x3ccf7b39	0.025327312
183	0x3c895e0a	0.016768474
184	0xb98f92b0	-0.00027384376
185	0x39862c5e	0.00025591528
186	0xbd3c5d11	-0.045987193
187	0xbd18dc12	-0.03731925
188	0x3d989dfe	0.074520096
189	0x3c88d380	0.016702414
190	0xbd839def	-0.06426608
191	0xbd8fea20	-0.07027078
192	0x3beff2f1	0.007322662
193	0xbd8cf24e	-0.068821535
194	0xbcba6732	-0.022754285
195	0xb97d5fcf	-0.00024163652
196	0x3cfa85ff	0.030581472
197	0xbc866e64	-0.01641006
198	0x3cd56549	0.026049273
199	0xb9b004b3	-0.00033572837
200	0x391d3aa8	0.00014994538
201	0xbcdec664	-0.02719421
202	0xb8bed9b1	-9.100454e-05
203	0xb7e3b06c	-2.7142662e-05
204	0xbba38559	-0.0049902615
205	0xbd5be8dd	-0.053688873
206	0xb8fa635a	-0.000119394346
207	0x39baf87e	0.00035661826
208	0xb8bd12d5	-9.01573e-05
209	0xbd223037	-0.039596763
210	0xbd8c7329	-0.068579026
211	0xbd38560e	-0.045003943
212	0x3c94823c	0.018128507
213	0xbc970787	-0.018436207
214	0xb9da166c	-0.00041596906
215	0x3ba10779	0.004914221
216	0x3d18da19	0.03731737
217	0xbd3e9100	-0.046525
218	0xbd776222	-0.06039632
219	0x3d775513	0.060383867
220	0xbc1eac64	-0.009684656
221	0x3cab611e	0.020920333
222	0x3c4a2e93	0.012340206
223	0xbd964088	-0.07336527
224	0xbd166825	-0.036720414
225	0xba139e82	-0.00056312245
226	0xbcb5bbf1	-0.022184344
227	0x3d95185b	0.07280036
228	0xbc06ca2e	-0.008226914
229	0xb9685b41	-0.00022159239
230	0x3979c1d3	0.00023818696
231	0x3a600e60	0.0008547064
232	0x3a3bd8dc	0.00071657985
233	0xb85d0211	-5.269243e-05
234	0x3c29ac4b	0.010356019
235	0x3ad5d3a6	0.0016313687
236	0x3a01df15	0.0004954201
237	0x38a6cdb4	7.953812e-05
238	0xb984d6dd	-0.00025337088
239	0xbd1e1d65	-0.03860225
240	0xbd458d12	-0.04823024
241	0xbd0bf21e	-0.034166448
242	0xbd7e2caa	-0.062054314
243	0x3c1a4ddb	0.009417976
244	0xb59604d0	-1.1177272e-06
245	0xbca19e3c	-0.019728772
246	0x3cefb003	0.029258734
247	0xbd3f81dd	-0.046754707
248	0xbd2e23ef	-0.042514738
249	0xbd798c5a	-0.060924865
250	0x3d7c30f8	0.061570138
251	0xbd8c7320	-0.06857896
252	0x3c2ce009	0.010551461
253	0x3d800929	0.06251747
254	0xbcc5c7d0	-0.02414313
255	0xb9ce4d54	-0.00039348996

sequential_2/dense_14/MatMul f4 [1, 1024]
0	0xb97bc73c	-0.00024011446
1	0xb9a7a4d3	-0.00031975526
2	0x38996100	7.313676e-05
3	0xb96f26b0	-0.00022807228
4	0xb747770b	-1.1889041e-05
5	0xb8d03526	-9.9281126e-05
6	0x395c5337	0.00021011835
7	0x39314bd9	0.00016908291
8	0x3954f679	0.00020309714
9	0xb9d4c264	-0.00040580623
10	0x39ca262a	0.00038556877
11	0xb80e4ce2	-3.392704e-05
12	0xb95607f8	-0.00020411599
13	0xb95da018	-0.00021135842
14	0x38d03b32	9.929239e-05
15	0x390d3d31	0.00013469603
16	0x39e9a476	0.00044563756
17	0x3902df03	0.00012480844
18	0xb9aecf54	-0.00033342338
19	0x39c5efb7	0.0003775337
20	0x38cc9412	9.755058e-05
21	0xb8a55d1c	-7.885156e-05
22	0x38aa4aea	8.1201855e-05
23	0x37f2e978	2.8957365e-05
24	0xb90d2a35	-0.00013462531
25	0x38e227da	0.00010783943
26	0x39e2de05	0.00043271497
27	0x37846266	1.5781447e-05
28	0x3731d2fc	1.0599146e-05
29	0xb8706d95	-5.7322515e-05
30	0xb9ab85a4	-0.00032715232
31	0x392eb8b6	0.00016662743
32	0xb9eab043	-0.00044763283
33	0x37813d0d	1.5406427e-05
34	0x38a76ffb	7.9840385e-05
35	0xb7ac7a4b	-2.0560945e-05
36	0x3905d25e	0.00012762236
37	0x39584879	0.00020626363
38	0xb8d32f51	-0.000100700774
39	0x3a154fd2	0.0005695793
40	0xba00b1b2	-0.0004909291
41	0xb923308a	-0.00015562974
42	0xb9870e18	-0.00025759707
43	0xb93077ba	-0.0001682927
44	0x3931949b	0.00016935395
45	0x39f4ed5d	0.00046716156
46	0x39b1df56	0.0003392647
47	0xb9980fb0	-0.00029003387
48	0xb998047b	-0.00028995037
49	0xb95b5d0e	-0.00020920133
50	0x39200142	0.00015259258
51	0xb8224acc	-3.869347e-05
52	0x37389518	1.1001968e-05
53	0x39bb393e	0.00035710068
54	0xba15e016	-0.00057172903
55	0xb996cba0	-0.00028761942
56	0xb83cb473	-4.499075e-05
57	0x3a239b24	0.00062410743
58	0x393439f7	0.00017187731
59	0xb988b942	-0.0002607797
60	0xb91b6cc2	-0.00014822467
61	0xb9f25461	-0.00046220704
62	0x38dd836c	0.000105625804
63	0x391ef018	0.00015157496
64	0xb5fb6d00	-1.873268e-06
65	0x3917e510	0.00014485815
66	0x38e4918d	0.00010898998
67	0x37e0f036	2.6814738e-05
68	0xb83b42d7	-4.4646524e-05
69	0xb9e1fe17	-0.00043104656
70	0x38b9b66a	8.855465e-05
71	0x396b0e72	0.00022416728
72	0x39a82b4e	0.00032075722
73	0x3920d040	0.00015336368
74	0x39df0b2b	0.00042542195
75	0xb97e27e8	-0.00024238194
76	0xb98d8931	-0.0002699583
77	0xba0514a5	-0.00050766236
78	0xb8f5b9a4	-0.00011717089
79	0x38b150b2	8.4550484e-05
80	0xb6f5a050	-7.320232e-06
81	0x39ae5598	0.00033251639
82	0x38344fbd	4.2989606e-05
83	0xb9fac249	-0.0004782847
84	0xba0836d9	-0.0005196161
85	0x39d517d8	0.0004064429
86	0xb9db0411	-0.00041773965
87	0x3986b208	0.00025691115
88	0xb8f22e6a	-0.000115481045
89	0xba064caa	-0.0005123118
90	0xb85d7410	-5.2798598e-05
91	0x39cfc18e	0.00039626326
92	0xba0855ac	-0.00052007544
93	0x37d00693	2.4798594e-05
94	0xb964d7a5	-0.00021824108
95	0x39f415b6	0.00046555483
96	0xb79e36bc	-1.8860555e-05
97	0x38ad1d6e	8.2547645e-05
98	0x39387ef5	0.00017594903
99	0xb9821269	-0.0002480925
100	0xb803da50	-3.1436153e-05
101	0xb9295100	-0.00016147271
102	0x3981e946	0.000247786
103	0xb8b0af9c	-8.425044e-05
104	0x3811572a	3.4651872e-05
105	0x3a22d266	0.00062111614
106	0x38a7bc74	7.998283e-05
107	0x3a422392	0.0007405813
108	0x37915d1c	1.7328704e-05
109	0xb9a51d73	-0.00031493194
110	0xb8221788	-3.8645725e-05
111	0x393fd8e4	0.00018295977
112	0xb994773e	-0.00028317602
113	0xb9650bc0	-0.00021843519
114	0x3a160d60	0.0005724039
115	0x39446957	0.00018731259
116	0xba1caade	-0.0005976389
117	0x3966665c	0.00021972641
118	0x3940579b	0.00018343182
119	0x386390e1	5.4255946e-05
120	0x38827fb8	6.2226725e-05
121	0x3a262f29	0.0006339425
122	0xb9d06d70	-0.0003975439
123	0xb8f08a82	-0.00011469891
124	0xb9dfc878	-0.00042683235
125	0xb95b78a8	-0.00020930415
126	0x381dd26b	3.7627684e-05
127	0xb97a9fcf	-0.00023901391
128	0x386b1696	5.60494e-05
129	0x39369c87	0.00017415184
130	0xb9321ca5	-0.00016986074
131	0x395143bf	0.0001995703
132	0xb982df73	-0.00024962015
133	0xb7570d7c	-1.2818138e-05
134	0xb943807e	-0.00018644516
135	0x3926458e	0.00015856905
136	0x3981a943	0.00024730907
137	0xb757e6ff	-1.2868782e-05
138	0xb9967b4e	-0.000287021
139	0xb8ae8dda	-8.3233885e-05
140	0x3a1567da	0.0005699374
141	0xb98ac065	-0.00026464756
142	0x363dd3d0	2.8286486e-06
143	0xb86c47dc	-5.633371e-05
144	0x38cb4c52	9.69401e-05
145	0x38753123	5.8458314e-05
146	0x3816ce49	3.5954905e-05
147	0x3a7d4d1e	0.00096626754
148	0xb9a18b59	-0.00030812135
149	0x39812eef	0.00024639766
150	0xb9c4d296	-0.00037540932
151	0xb98351f8	-0.0002504734
152	0x3a0bed5c	0.00053377985
153	0xb97ba5a6	-0.00023998934
154	0xb986159a	-0.00025574566
155	0x39374cf4	0.00017480907
156	0xb8c92ea4	-9.5931144e-05
157	0x390c8acb	0.00013403145
158	0x39123336	0.00013942723
159	0x392df8e6	0.00016591288
160	0xb9ee8e6a	-0.00045501004
161	0xb7b14159	-2.1130474e-05
162	0xba0f9b6c	-0.0005478177
163	0xb9b597b6	-0.00034636044
164	0x397ea060	0.00024283072
165	0xb8389af0	-4.4013315e-05
166	0xb892f086	-7.0066235e-05
167	0x36ab6a44	5.108568e-06
168	0xb80e69c2	-3.3953933e-05
169	0xb9baca33	-0.00035627335
170	0x391ed986	0.00015149088
171	0x379feb4c	1.9063846e-05
172	0xb9d342e7	-0.00040294902
173	0x39a63190	0.00031698914
174	0x3a503225	0.00079420424
175	0x394780d9	0.00019026118
176	0xb855a870	-5.0940027e-05
177	0xb97ba04d	-0.00023996942
178	0xb847ccc6	-4.7636007e-05
179	0x3880374c	6.1138155e-05
180	0x39960b5f	0.00028618702
181	0x396b6351	0.00022448345
182	0x399d1c40	0.0002996642
183	0x394b84ec	0.00019409106
184	0x388f3d20	6.830157e-05
185	0xb985aa83	-0.00025494778
186	0xb8daab61	-0.00010426972
187	0x39a587ac	0.00031572336
188	0xb99654ea	-0.00028673495
189	0xb71a2d02	-9.1895945e-06
190	0x39f6acdf	0.00047049575
191	0x39169191	0.00014359342
192	0x391faf24	0.00015228667
193	0x394d1f7f	0.00019562057
194	0x39af2217	0.00033404
195	0x3850fdac	4.9827315e-05
196	0x39b10d66	0.00033770053
197	0xba2d6e0e	-0.00066158257
198	0xb9c41a22	-0.00037403504
199	0xb9ef87f8	-0.00045686937
200	0x39902b06	0.00027497875
201	0xb89fb108	-7.6146855e-05
202	0xb9d63ec0	-0.00040864013
203	0x38b5b1e6	8.663889e-05
204	0x38afc96c	8.382168e-05
205	0x398f3806	0.00027316826
206	0xba29996e	-0.0006469701
207	0xb966b367	-0.00022001342
208	0xb87c8478	-6.0204853e-05
209	0x38c09d20	9.18454e-05
210	0xb90af229	-0.00013250917
211	0x39538255	0.0002017108
212	0xb86789ef	-5.5203152e-05
213	0xb9869781	-0.0002567135
214	0x39b2a4d1	0.00034073603
215	0xb6d8f708	-6.46606e-06
216	0xb74a0eac	-1.2043554e-05
217	0xb73ef71a	-1.1382415e-05
218	0x39ad7306	0.0003308283
219	0xb9ba8460	-0.00035575312
220	0x397420c0	0.00023281854
221	0xb82e599d	-4.156829e-05
222	0xba2251b4	-0.0006191984
223	0x39b5087d	0.00034529335
224	0xb95146d5	-0.0001995818
225	0x38fbb7d8	0.00012002856
226	0xb893a250	-7.039739e-05
227	0xb8ca4cf4	-9.646444e-05
228	0xb8002860	-3.055518e-05
229	0xb99e01da	-0.00030137488
230	0x399f6678	0.00030403188
231	0x385c635e	5.254463e-05
232	0xba10e3a8	-0.00055270875
233	0xb9890f4d	-0.00026142076
234	0x37879840	1.6164151e-05
235	0x392051a3	0.00015289201
236	0x38f218f6	0.000115441086
237	0x38abebe0	8.1978505e-05
238	0xb9cb3714	-0.00038760214
239	0x3a34e8e8	0.0006901161
240	0x382055a2	3.8226724e-05
241	0xb9d4811b	-0.00040531982
242	0xb953932e	-0.00020177357
243	0xb919e4b2	-0.00014676413
244	0x38cfa30f	9.900901e-05
245	0x390ac45f	0.0001323386
246	0x389a5393	7.358859e-05
247	0x38ab2a5c	8.1618055e-05
248	0x39321b28	0.0001698552
249	0x39a8ba7f	0.00032182407
250	0x3985a9d5	0.00025494272
251	0x3885f187	6.386922e-05
252	0x37ca4174	2.4110755e-05
253	0xb964918b	-0.00021797993
254	0xb9910bdf	-0.000276654
255	0x39f080e9	0.00045872413

sequential_2/dense_11/MatMul;sequential_2/activation_4/Relu;sequential_2/dense_11/BiasAdd f4 [240]
0	0xbd8ce6bc	-0.068799466
1	0x3ce220b8	0.027603492
2	0xbe4c9a81	-0.19980814
3	0xbf21ca00	-0.6319885
4	0xbc2f1166	-0.0106853
5	0x3db8f99e	0.09031986
6	0xbdc5e29a	-0.096623614
7	0x3cb60b05	0.022222051
8	0x3eb8e591	0.36112645
9	0xbebabaec	-0.36470735
10	0xbce129f7	-0.02748583
11	0x3ec8e1c3	0.39234743
12	0xbd59bb34	-0.053157046
13	0xbd2d70f9	-0.042344067
14	0xbe2e1aeb	-0.17002456
15	0x3d5c8b0c	0.053843543
16	0x3cd1f686	0.025630247
17	0x3e0e49e7	0.13895379
18	0x3cb0042a	0.02148636
19	0xbd8c1ac2	-0.06841041
20	0xba1d7430	-0.0006006388
21	0xbccc65d2	-0.024950895
22	0xba862ad6	-0.0010236155
23	0x3e20370e	0.15646002
24	0xbdaad89a	-0.08342095
25	0xbe944abc	-0.28963268
26	0xbd82d54b	-0.06388339
27	0xbcc06c86	-0.023489248
28	0xbd363004	-0.044479385
29	0xbb9f0276	-0.0048525883
30	0x3ed17226	0.409074
31	0xbcd8f64c	-0.026484631
32	0xbe501a26	-0.20322475
33	0xbf34c26f	-0.7060918
34	0xbde527a5	-0.11189202
35	0xbc12a96a	-0.008951524
36	0xbaf2a8a8	-0.0018513398
37	0x3d064b3e	0.0327866
38	0xbbe0489c	-0.006844593
39	0x3cc1cd42	0.023657445
40	0xbd5c390e	-0.05376535
41	0x3e75a172	0.23987368
42	0x3d776ed2	0.06040842
43	0xbd1398b1	-0.03603429
44	0x3e3dec40	0.18547153
45	0xbb63970a	-0.0034727477
46	0xbd9ecd1d	-0.07753966
47	0xbdce3ea5	-0.10070542
48	0xbe1ea5a8	-0.1549288
49	0xbd80528e	-0.06265746
50	0xbcc1578f	-0.023601322
51	0x3da181c6	0.078860804
52	0xbd9e11df	-0.077182524
53	0xbe044c97	-0.12919842
54	0x3ef0875e	0.46978277
55	0xbe45b530	-0.19307399
56	0xbec4113e	-0.38294405
57	0xbe082187	-0.1329404
58	0xbe8b1fec	-0.27172792
59	0xbe5131f4	-0.20429212
60	0xbceada72	-0.028668616
61	0xbc8f6d2e	-0.017508116
62	0xbd741979	-0.059594605
63	0x3e13a604	0.14418799
64	0xbdaaa7fd	-0.083328225
65	0xbeb8bdf0	-0.3608241
66	0xbeb2eb18	-0.34944987
67	0xbd5f1b88	-0.054469615
68	0xbeb94504	-0.36185467
69	0xbd79e400	-0.061008453
70	0x3b813909	0.0039435667
71	0x3d27d215	0.040971834
72	0x3e9c34d3	0.30509052
73	0x3ea9c376	0.33156937
74	0xbf018d4e	-0.5060624
75	0xbe81e773	-0.25371894
76	0x3d878bdf	0.06618475
77	0xbf0e9733	-0.5569946
78	0x3c882eae	0.016623821
79	0x3e21e12b	0.15808551
80	0xbdb93757	-0.09043758
81	0xbeb32640	-0.3499012
82	0x3db3c9a4	0.08778694
83	0xbf01f2d3	-0.50761145
84	0xbd14c730	-0.036322773
85	0x3e3ab482	0.18232921
86	0xbd67d2cc	-0.056597516
87	0xbe7dd938	-0.24789894
88	0xbef8fe8c	-0.48631704
89	0xbcb16cba	-0.02165829
90	0xbdd1df8a	-0.10247715
91	0xbdaa453e	-0.08313988
92	0xbdfa27e8	-0.12214643
93	0x3d5d393e	0.05400967
94	0x3e7e961c	0.2486195
95	0x3d11ac0b	0.035564464
96	0xbc81b06c	-0.015831195
97	0xbe0eaf9b	-0.13934176
98	0x3efc1234	0.49232638
99	0x3d61bab2	0.055109687
100	0x3d178fe5	0.037002463
101	0x3cd5ee5e	0.026114639
102	0xbdb80abe	-0.08986424
103	0x3c7c7157	0.015407882
104	0xbcf7566c	-0.030192576
105	0x3f181ae3	0.59416026
106	0x3d96da3f	0.07365846
107	0xbe765ba5	-0.24058397
108	0xbc2f3abf	-0.0106951585
109	0x3e1b188e	0.15146086
110	0x3dbb1d08	0.09136397
111	0xbcc2b38d	-0.023767257
112	0x3ebb8167	0.36622164
113	0xbe120d1d	-0.14262815
114	0x3c03665c	0.00802001
115	0xbe0e3155	-0.13886006
116	0xbd692bc8	-0.05692652
117	0xbe3c132d	-0.1836669
118	0x3deb9915	0.115038075
119	0xbe483eb0	-0.19555163
120	0xbda6d9da	-0.08147021
121	0xbd1acba8	-0.037791878
122	0xbe44019e	-0.19141242
123	0xbce3a297	-0.02778749
124	0xba933f98	-0.0011234162
125	0xbdd90c14	-0.10598007
126	0x3e1171c1	0.1420355
127	0x3a0f9d40	0.0005478449
128	0xbdc7b14b	-0.09750613
129	0xbe249f97	-0.16076504
130	0xbd85dccf	-0.065362565
131	0xbee6ce7c	-0.4507941
132	0xbecb6df4	-0.39732325
133	0xbe11ab92	-0.14225605
134	0xbd59d99d	-0.053186048
135	0x3e07a7f2	0.1324766
136	0xbe0f9e58	-0.14025247
137	0xbdcde932	-0.10054244
138	0xb9cc3b80	-0.00038954243
139	0xbee80920	-0.45319462
140	0xbd954811	-0.07289136
141	0xbc17fdf0	-0.009276852
142	0xbd69a0c8	-0.0570381
143	0x3e1615cc	0.14656752
144	0xbe1ea28f	-0.15491699
145	0xbec4bf01	-0.38426974
146	0xbe3ab324	-0.18232399
147	0x3f0b7a56	0.54483545
148	0xbcb10a52	-0.021611366
149	0x3d06c5c0	0.032903433
150	0x3b6b0b06	0.0035864725
151	0x3e47d5da	0.19515172
152	0xbde83d95	-0.11339871
153	0xbd32922a	-0.043596424
154	0xbd53d70a	-0.05171875
155	0xbe0865e0	-0.13320112
156	0xbe785efc	-0.24254984
157	0xbf2ca86f	-0.6744451
158	0xbbf24728	-0.0073937364
159	0xbc035f09	-0.008018264
160	0xbe9b1021	-0.30285743
161	0xbc91dc24	-0.017805167
162	0xbf235604	-0.63803124
163	0xbd907188	-0.07052904
164	0xbdc5087a	-0.096207574
165	0xbcbc5714	-0.02299074
166	0xbe10ae6f	-0.14129041
167	0xbf4515b0	-0.7698622
168	0xbd819f91	-0.06329263
169	0x3e035168	0.12824023
170	0xbd05b771	-0.032645646
171	0x3e31ee4b	0.17376058
172	0xbe2f8859	-0.17141856
173	0xbd839834	-0.06425515
174	0xbef350d6	-0.4752261
175	0xba176a66	-0.00057760475
176	0xbebc04b8	-0.3672235
177	0xbcba498a	-0.022740144
178	0xbd98035a	-0.07422514
179	0x3c41e954	0.011835415
180	0xbd12f1ba	-0.03587506
181	0xbe3e549a	-0.1858696
182	0xbf034c2f	-0.5128812
183	0x3c204084	0.009781007
184	0x3e600f52	0.21880844
185	0x3e14fbf6	0.1454924
186	0xbe057ab2	-0.13035086
187	0xba8a10bc	-0.0010533552
188	0x3e32a497	0.17445599
189	0xbdcfe5d3	-0.10151257
190	0xbf6e9bf4	-0.93206716
191	0xbe76732c	-0.24067372
192	0xbb6a45ae	-0.0035747099
193	0xbe64915c	-0.22321075
194	0xbde42cd5	-0.111413635
195	0x3e39beb1	0.18139149
196	0xbdea8c85	-0.11452583
197	0xbd97d052	-0.07412781
198	0xbd946504	-0.0724583
199	0x3d091f2b	0.03347699
200	0xbde1d412	-0.11026777
201	0xbd3f18f6	-0.046654664
202	0xbd9062ec	-0.07050118
203	0xbe894f09	-0.26818112
204	0xbdf0e0c1	-0.117616184
205	0xbd6a9d0d	-0.05727868
206	0xbba01528	-0.0048853345
207	0xbe682d6a	-0.22673574
208	0x3b856baa	0.0040716724
209	0xbf67a87e	-0.90491474
210	0x3911f7b0	0.00013920548
211	0xbdf069dd	-0.11738942
212	0x3dccd909	0.10002334
213	0xbd033183	-0.03202964
214	0xbeb7b4e5	-0.358802
215	0xbcee3266	-0.029076766
216	0xbb99e9f1	-0.0046970774
217	0x3d268016	0.040649496
218	0xbc0e111e	-0.008671073
219	0x3e0b7893	0.13620214
220	0xbe23d13a	-0.15997782
221	0x3daf1138	0.08548206
222	0xbb18ca34	-0.0023313882
223	0xbbe4de00	-0.0069844723
224	0x3d6d21e9	0.057893667
225	0x3d48073a	0.048835017
226	0xbc70579a	-0.014669323
227	0x3ddb40f5	0.10705749
228	0xbd06964c	-0.032858178
229	0xb9ab5912	-0.00032682024
230	0xbd6638e8	-0.056206614
231	0xbed6833e	-0.41897005
232	0xbbb1f951	-0.005431332
233	0xbd9bffc9	-0.076171465
234	0xbdf43e62	-0.11925961
235	0x3d9b6a20	0.07588601
236	0x3ec41ab6	0.3830163
237	0x3d69db3e	0.05709385
238	0xbc48fe7a	-0.012267703
239	0xbda1a5a5	-0.07892922
